Tensorflow_pytorch/cifar_net.pth (torch_old, 249602 bytes, 10 tensors)

conv1.weight f4 [6, 3, 5, 5]
00000000: aee8 873e 570a 4b3e 8b52 bc3c df73 0d3e
00000010: d857 763c 8af9 0c3d 9dbf 8f3c 681a 583d
00000020: 763c 94bd 1ed8 1ebd a123 32bd c7b5 e13c
00000030: 6956 a1bd 7a0a 00be 0cb5 17be 3ddb 013b
00000040: ee72 b2bd 3b7b 26be 3e19 abbd 5499 69bd
00000050: a752 17be e16a 65be 467e 2ebe 78fa 28be
00000060: 1599 23bd 7e85 ffbd 314d 2dbb 02c5 1c3d
00000070: 2826 e2bd d59f dd3c 2f29 d7bd 7f32 b63d
00000080: 78ce d0bd 9681 1bbc ae30 53bd bbd7 9cbc
00000090: f944 063d eb15 dfbc 98e1 b23c 6726 01bd
000000a0: 62d2 973c fafa bbbc cf6c cc3d c33a 08bd
000000b0: 1702 10be 8bdd 71bd 91f5 2a3c 952c 873d
000000c0: 0619 123e 5554 d3bc c49f 01be ef6a 47bd
000000d0: 8ec8 03bd 745a a5bd 144e 15be 5f6b 573e
000000e0: dd2f 003e 3bce 293e c214 c53d 22b2 dfbb
000000f0: 5f8f f23d 367b 923e 2714 803e 92ee 903d
00000100: e4fb 98bd c89e a03d 2d83 7d3e e055 e03d
00000110: 260d 6d3e cefb b3ba 0f31 b0bd 9a13 4d3e
00000120: c3dd 5c3e ae20 fc3d 4703 073e 2e15 94bd
00000130: 2d82 f23d cfc7 a63d 3891 1c3e adfb 2cbd
00000140: 23dc 05be 7c75 9abd 3540 56be 19aa abbd
00000150: 8eba e8bc bd61 07be 5665 a0be 8e56 bfbe
00000160: ef9b bcbe 2014 22be 74a7 423d 5488 3f3d
00000170: 5807 3f3e dcfa 953d b4e7 793d 68d5 e83d
00000180: c122 0b3e 92d1 3a3e 1486 a03d 0ae8 fb3d
00000190: 91db 2bbd f9ab b73d c747 213e 2407 7e3e
000001a0: 5ab6 083d 365b 8cbd e6b4 06be cbc4 2bbe
000001b0: 0b18 06be a3c2 9b3d bce0 36be 4a3d 23be
000001c0: ae2d 47be bede 0ebe 031f 39be 7eac 1fbd
000001d0: c3ae 363e 429b 2a3d 713d 1b3d cabc ae3d
000001e0: e437 243d 548b b33d 77b4 063e f90d 463d
000001f0: a16b e6bc 666f 963d 4f1c 2d3e 4ddd 563e
00000200: 11e3 313d c179 3e3b d7bc 9b3d 233f 083d
00000210: c420 c8bd a1a2 c5bb 8807 56bd 481c 8abd
00000220: 6bdc 0dbd adfd 09be 0c9e 9fbd ca78 10be
00000230: 1f73 733d 92f8 cf3c 88cd 163e 614c 2b3e
00000240: 137f 893b 9b81 ad3a 4bdb 383d b0e6 4f3d
00000250: ea0b ca3d 068a 98bd cf5b b13d 2712 453e
00000260: 3155 a03c 7b2a 0ebc a111 c1bd 8d9b 9b3d
00000270: 7554 1a3d 1e58 debd d589 99bc c5a4 91bd
00000280: 0e52 c73d e2ee cabe 5062 70be bd93 293e
00000290: 174a 93be 42a3 fdbd 6488 63be d0f7 5ebe
000002a0: 8fa2 7a3e 3ff5 6d3d f68e 353d 9ae1 2f3a
000002b0: 0a99 91be 36cb 37be c939 983e 71e6 1dbd
000002c0: 7771 843b d839 11bd ae8d d53d 75be 473c
000002d0: 1a10 813e d334 263e 5f4f 44be c2bd 0e3e
000002e0: 4d2c 183d b0e6 8f3d eae9 77be f070 f9bd
000002f0: 5da7 c13e 845b d1bd 7fe0 d93c d6e4 ea3c
00000300: 7ab3 b5bd 17db d23e 7eed b23e d46c 2f3e
00000310: c342 dc3d 112b 24be 837a 82bd 16fd a93e
00000320: 5b6a 9cbd 090b 67bd 6e39 17bc e202 fbbd
00000330: b1f9 243c bfc3 a03d df86 84bc 78dd 36be
00000340: aeab 1b3d 4488 e9bb 3473 81bd 2957 4ebe
00000350: c036 37bd 5ca6 3c3e e869 46be 9a96 0abe
00000360: 1885 cabd b86d b6ba 675f af3d 3efb 133d
00000370: ff0f e13d 53ab f23d feee 0bbe 58d8 52be
00000380: 92be d93d e5c7 f1bc cec2 7f3e 0579 61be
00000390: 5d5c 38be d9e0 793e af1a a7bd 3414 d23e
000003a0: bc7d 693d f21c d3be bbdc 63bd 0fed be3c
000003b0: 068c 813e cc46 7e3d be17 ccbd d8a3 e7bd
000003c0: 2ead a93d 6286 9ebd 3e78 4bbd fa1d f13d
000003d0: 91b3 bfbd a124 0c3c 3de0 26be 6fb7 993d
000003e0: 44d3 253e b97c 0f3e c6a0 b9bd 207d c33d
000003f0: 6423 12be 5cc2 ccbe 018a 883e 4f0a 48bc
0.26544708 0.19828163 0.022988578 0.13813733 0.015035592 0.034417666 0.017547423 0.052759558
-0.072380945 -0.038780324 -0.04349101 0.027552499 -0.078778096 -0.12503996 -0.14815158 0.0019814514
-0.08713327 -0.16257946 -0.08354424 -0.05703099 -0.14777623 -0.22404052 -0.17040357 -0.16501796
-0.039940912 -0.124766335 -0.0026443715 0.03827382 -0.11042434 0.027053753 -0.10505902 0.0889635
-0.10195631 -0.009491345 -0.051560096 -0.019145837 0.03278062 -0.027232131 0.021836087 -0.031530764
0.018532936 -0.022946823 0.09981691 -0.033259165 -0.14063297 -0.05904917 0.010434524 0.066003
0.14267358 -0.025797049 -0.12658602 -0.048685964 -0.032173686 -0.08073893 -0.14580566 0.21037053
0.12518258 0.16582577 0.096231 -0.006826655 0.11843752 0.28609627 0.25015375 0.07076754
-0.07469919 0.07842785 0.24757071 0.10953879 0.23149547 -0.001373166 -0.08603107 0.20027009
0.2156897 0.12310921 0.13184844 -0.07230602 0.11841235 0.08143579 0.15289772 -0.042232204
-0.13072257 -0.075419396 -0.2092293 -0.08382053 -0.028409269 -0.13220878 -0.31327313 -0.37370723
-0.36837718 -0.1582799 0.047522977 0.046760872 0.18655145 0.07323238 0.061011985 0.11368829
0.13587476 0.18244007 0.078380734 0.12300117 -0.04195744 0.08968348 0.15750037 0.24807411
0.03337703 -0.068533346 -0.13154945 -0.1677429 -0.13095109 0.076054834 -0.17859167 -0.15941349
-0.19451019 -0.13952157 -0.18078236 -0.03898286 0.17840104 0.04165197 0.037900392 0.085321024
0.040092364 0.08766809 0.1315478 0.04835317 -0.028127493 0.07345466 0.1690533 0.20982857
0.043429438 0.002906427 0.07604378 0.033263337 -0.097718745 -0.0060313498 -0.052253276 -0.067436755
-0.034634035 -0.13475676 -0.07793817 -0.14108577 0.05943596 0.025387082 0.14726841 0.16728355
0.0041960566 0.0013237478 0.04513101 0.05075711 0.09865554 -0.07448201 0.08660089 0.19245206
0.019571872 -0.00867712 -0.094271906 0.07598028 0.0376782 -0.10856651 -0.018742481 -0.071115054
0.097324476 -0.39635378 -0.23475003 0.16560264 -0.28767464 -0.123846546 -0.22219998 -0.2177422
0.24476074 0.058095213 0.04432579 0.00067093375 -0.28437072 -0.17948613 0.29731587 -0.038549844
0.0040418464 -0.035455555 0.10427414 0.012191405 0.25207597 0.16231088 -0.19170903 0.13939574
0.037151624 0.07026422 -0.24210325 -0.12179744 0.37823 -0.10222533 0.026596306 0.02867357
-0.08872123 0.41182777 0.34946817 0.17131358 0.10754921 -0.16032054 -0.063710235 0.33200902
-0.07637473 -0.05640701 -0.009230001 -0.12256409 0.010069297 0.078498356 -0.016177593 -0.17857921
0.038005523 -0.00712684 -0.063208014 -0.20150436 -0.044729948 0.18422836 -0.19376338 -0.13534012
-0.09888667 -0.0013918197 0.085631184 0.036128275 0.10989379 0.11849084 -0.13665387 -0.20590341
0.106320515 -0.029514262 0.24976656 -0.22018822 -0.18003984 0.24402179 -0.08159386 0.4103104
0.057004675 -0.4123302 -0.055630427 0.023306398 0.25302142 0.062079236 -0.09965466 -0.113105476
0.082849845 -0.07740475 -0.04967522 0.11773296 -0.093604214 0.008553655 -0.16296478 0.0750569
0.16193873 0.14012422 -0.09063868 0.0954535 -0.14271313 -0.39992034 0.2666779 -0.012209489

conv1.bias f4 [6]
00000000: 8200 503d 39f6 22be a7a2 17be 7d42 24be
00000010: 9821 cabd 3450 bdbe
0.050781734 -0.15914239 -0.1480814 -0.16040988 -0.09869689 -0.36975253

conv2.weight f4 [16, 6, 5, 5]
00000000: d454 f1bc 953a d5bd 0c7f 033d 9bdf 05be
00000010: 3112 bdbd 2e20 1c3e 2178 1fbc 8e11 f7bd
00000020: 0a25 ff3c efc0 04be 928e 203e 166d e13c
00000030: 2953 113c c477 82bd aa18 c2bd 3662 4d3e
00000040: 533d 6c3e 5a65 213e b32c 84bb fcef 83bc
00000050: 0451 cc3d 054c 983d 34c2 5f3e 5591 7e3e
00000060: 3def 053e e87d b03d 4456 6abd 027c fc3c
00000070: 93bd f83d 1a82 ab3d b8e1 5a3e 8786 f23c
00000080: a7ce 83bd ab2c 003e 113e 323e df35 2f3e
00000090: 4b80 db3d 6363 53bd ef83 9abd ca26 913d
000000a0: f83b 6fbd fd8d fa3d 0c00 f43d beab a93c
000000b0: 1b8e 09be 65d8 863e 19c6 00be 819a bdbd
000000c0: c48a 0dbc caed fe3c 975d 163e 46d2 ca3a
000000d0: 1688 04be 80c1 4d3d 6d65 d8bb 5882 89bd
000000e0: 56ff 413d 2c0d a93d d290 b73c 6251 123d
000000f0: 8cfa 20be a322 52be b842 853d e015 093e
00000100: 8197 e8bd a7e1 573e f64b 3fbe fff4 f2bd
00000110: 0c7d 85bc 4e11 3b3d e55a 8b3e 4410 a63e
00000120: 1ea8 1abd 0df2 1fbe 6d9f 3cbe 2edb 5fbe
00000130: af4e 60bd c735 d83d 7b4e 51bc 2218 dbbe
00000140: fb8e c03d cd44 8dbe 539b 4ebd dc6b 07bd
00000150: e02c 04be 71ba 953e e0e2 76bb ad57 43bf
00000160: 2c8c d2be 0c1e 9abe 9e88 493e 8ea6 a13e
00000170: c187 8b3c 3717 d8be 084e e7be 7d22 84be
00000180: e028 9cbd ed52 373e 1d2b 4dbd 3bad a9bd
00000190: 8e2d 273e ca98 1e3d a08a bbbd 215d b9bb
000001a0: c1b4 1c3d fc92 a73d 6d7c f33d 794b 07bc
000001b0: 3fa3 e0bd 9d6f a8bd 49b5 9ebd 4bc1 a0bd
000001c0: 1c7a 45bd 5ff6 b5bd 65f9 d93c 68f3 653c
000001d0: 07d2 41be 05b6 07be e58e 0abe f937 4f3d
000001e0: f376 3f3e 5d23 873d c491 e1be 9d70 a1be
000001f0: e210 d4bd 137b 3ebe 77a1 c1be 8e78 c2be
00000200: b02b 4fbd f10e a0be 0a87 dcbd 3aa7 a2be
00000210: 482d 25bf 397d eebe fdbe b83d 8dce f0bd
00000220: 27dc 5abe 239e bcbe 7c5e 28bf 3efd b7bd
00000230: 588c a5be 2a66 b8bd b64e 133d 5c85 78be
00000240: 1158 d6bc 31ec 3b3e f142 28be d3dd a03d
00000250: 253e 4abb 5cb0 8c3c d808 b43d 4009 8a3c
00000260: 2829 f83a cdef 5e3b 8b8f 1f3e 9eb9 da3d
00000270: 3656 9e3c e0af 2f3c f6e1 b63a 0299 9dbd
00000280: 0070 fb3d 49fb de3a 66d9 543d 8f04 0b3e
00000290: 2428 28bd 12f6 973d 230a 013e 268b a5bd
000002a0: 3651 ab3c ec57 05be 1635 87be 5e10 59bd
000002b0: 64b4 70be 7e5f 22be 73a1 8cbe 7ee5 a53e
000002c0: a9fe 953e 8608 6f3e f889 5a3e 956e 9b3e
000002d0: f1db 683c 9094 373e 6ef4 3e3e e657 4e3e
000002e0: f916 6a3e e3f9 a8be f64f 9ebe 63e8 babe
000002f0: 8b90 cfbd fdcc 39bd 3f40 bbbd 8f3d 1b3e
00000300: 3740 513e 22fb 8a3e 7b27 713e 3905 70be
00000310: 5af4 cbbd 7df6 48bd 10cd 743d dd7d a43c
00000320: 0ed9 853e 9353 5abc 8c34 c43d 68c8 af3c
00000330: 1a37 973c 985f 913d 29d5 00be c597 f8bd
00000340: d7df 3cbe 2a7d 9c3d f663 e93d 4e91 7cbe
00000350: 28c1 cfbd 3e5e 4fbe 876a 12bd 075a 8b3e
00000360: a388 06be 60b7 343e 1ca1 4bbe a7f1 663d
00000370: 9e15 603e 1df4 6ebe 6828 253e e05d d3bd
00000380: f53c 9c3d 29ed 753e 3a32 713d e89b 3f3e
00000390: c105 223c 7ffd 993b 9726 863d a474 c6bd
000003a0: 1153 653c 356b 30be 84e2 623d 2cfb a3bd
000003b0: ec0f a4be 903e 57bd a342 a8be f1fa 89bd
000003c0: 59f9 b8bd a6fc 2cbe 9ec5 28bd 4067 9ebe
000003d0: e4a7 4bbd 5f3d 1d3d 170a 41be dd81 29bb
000003e0: 952d 1dbe cbf5 833d 7811 c63c 9af1 87bd
000003f0: 5832 dcbd c039 40be c3e6 453b 184d 89bd
-0.029459395 -0.10411564 0.032103583 -0.1307358 -0.09231985 0.1524665 -0.009733231 -0.12063895
0.031145591 -0.12964223 0.15679386 0.027517837 0.008869925 -0.063705 -0.094773605 0.20056996
0.23070268 0.15761319 -0.004033649 -0.016105644 0.0997639 0.074363746 0.21851426 0.24860127
0.13079543 0.08617765 -0.057211176 0.03082085 0.121455334 0.08374424 0.21375167 0.029605163
-0.064359 0.1251704 0.17406489 0.17110394 0.10717829 -0.051608454 -0.075446956 0.070874766
-0.0584068 0.12234113 0.119140714 0.020711776 -0.13433115 0.2633697 -0.12575568 -0.09257985
-0.008639041 0.031119246 0.14684139 0.0015474043 -0.12942538 0.050233364 -0.006603888 -0.06714314
0.047362648 0.082544655 0.022407923 0.035722144 -0.15720576 -0.20521025 0.06506866 0.13387251
-0.11357022 0.21082173 -0.1868132 -0.118631355 -0.016294979 0.0456708 0.27217785 0.32434285
-0.037757985 -0.15619679 -0.18420191 -0.21860954 -0.05476254 0.10557132 -0.012775059 -0.4279185
0.09402271 -0.27591553 -0.050441097 -0.033061847 -0.12907743 0.29243806 -0.003767185 -0.7630566
-0.41122568 -0.3010105 0.19681022 0.31572384 0.017032506 -0.42205212 -0.4517672 -0.25807562
-0.07624984 0.17902727 -0.050089944 -0.08284994 0.16325971 0.03871993 -0.091573 -0.005656854
0.038258318 0.08182332 0.11888967 -0.00825774 -0.10968637 -0.082244135 -0.07749421 -0.07849368
-0.048212156 -0.08884882 0.026608178 0.014035083 -0.18927775 -0.13253029 -0.13531072 0.05059049
0.1869772 0.06598542 -0.44056523 -0.3153123 -0.10354783 -0.18601637 -0.378185 -0.379826
-0.050578773 -0.312614 -0.10767944 -0.3176821 -0.6452222 -0.46579912 0.09020803 -0.117581464
-0.21373044 -0.368394 -0.6576917 -0.08983849 -0.32333636 -0.09003861 0.035963736 -0.24269623
-0.02616504 0.18351819 -0.16431786 0.078548096 -0.0030859795 0.017173938 0.08790749 0.016850114
0.0018933164 0.0034017444 0.15582101 0.10679935 0.019328218 0.010723084 0.001395284 -0.076951995
0.12277222 0.0017012145 0.05196514 0.13575958 -0.041053906 0.07419981 0.12601523 -0.08083181
0.020912748 -0.13021821 -0.2640769 -0.052994125 -0.23506314 -0.1585674 -0.27466926 0.3240165
0.29295853 0.23343095 0.21341693 0.30357805 0.014212594 0.17927766 0.1864793 0.20150718
0.22860326 -0.33003148 -0.3092038 -0.36505422 -0.10134991 -0.045361508 -0.09143113 0.15160201
0.20434652 0.27144724 0.23550217 -0.23439492 -0.09958716 -0.049063195 0.059765875 0.020079548
0.26142162 -0.01332559 0.09580335 0.021457866 0.018458892 0.07098311 -0.12581314 -0.12138323
-0.18444763 0.07641061 0.11396019 -0.24664804 -0.101442635 -0.20250794 -0.035746124 0.27217123
-0.1313806 0.17648077 -0.19885677 0.0563828 0.21883246 -0.2333531 0.16128695 -0.103206396
0.07628814 0.2401625 0.05888579 0.18711817 0.009889067 0.0046994085 0.06550329 -0.09690216
0.013996855 -0.17228396 0.055391803 -0.080068916 -0.32043397 -0.0525499 -0.3286334 -0.067373164
-0.09031934 -0.16893253 -0.041204087 -0.30938148 -0.04972066 0.038388606 -0.18851505 -0.0025864758
-0.1534942 0.06443366 0.024178252 -0.06637879 -0.1075179 -0.1877203 0.003019736 -0.067041576

conv2.bias f4 [16]
00000000: bd7e ed3d 3132 2bbe c73f edbe 761a 1f3f
00000010: fcb5 10bc 86e7 ce3e 8717 db3d f426 203f
00000020: a7f6 bd3e 8e8f 623f aaa6 483e 6166 8bbd
00000030: 483a 8ebd 0bc4 073e 8d5d 943e 7e79 0bbf
0.11596439 -0.16718365 -0.4633772 0.6214975 -0.008832451 0.40411013 0.10697847 0.6255944
0.37102243 0.885003 0.19594827 -0.068066366 -0.0694471 0.13258378 0.28977624 -0.5448226

fc1.weight f4 [120, 400]
00000000: 8b18 473e 0e0f b73c a6c9 7bbe fb51 d2bd
00000010: 6680 0fbd 0045 113c d515 98bd d8a6 74be
00000020: 07fe 423e bb5d 6dbe 2e41 103e aff3 9abe
00000030: b9fa 94be b657 4abe b2f5 e8bd 7011 a2be
00000040: d4e8 b6be 688d a3be 2575 d1be 1c5f febd
00000050: 78a5 d6bd 796b 7a3d 654c b4bd e432 33be
00000060: e759 7d3d 376a 243d b7e8 133c f397 093e
00000070: 7f96 953d 216a 1c3e 5fca 353e 8ebf 24bd
00000080: 2958 82bd 128c db3d 9669 883e 43e5 823e
00000090: 47ee 593d f979 0a3d f601 243d 4379 943d
000000a0: 5e03 cd3d 05ff b3bd c5ba 0b3a b3d3 9dbd
000000b0: 15c0 9bbd eea6 ae3c 9fd8 d5bd 5a49 85be
000000c0: 364e 1bbe b5d2 49be 0cb7 8dbd 4784 64bd
000000d0: e105 0a3e 7fb1 863d 8445 443d 3465 acbd
000000e0: 0cd0 3e3d ac55 96bd dd1c 173e 6fd2 c2bd
000000f0: 2eb7 2bbd c5ca 073d 3f6b 0dbd c133 2d3e
00000100: ff97 ad3c 6886 8cbc feae 4f3c 0c71 f73d
00000110: b7ad 873e 5322 7d3e d413 743e 5117 473e
00000120: 52f9 f23d ab77 803e bd7e 6a3e e1ed 07bf
00000130: 1aed 7abe 10e6 a5bd 0393 f53d 54ea d23d
00000140: 6914 80bd ae28 363d b92f 953d 881c 2f3e
00000150: fa99 cabc 3c1d aebd d295 f4bc d84a f3bd
00000160: c8b9 aabc 5f46 053d 659a d3bd dd31 48bd
00000170: b666 22be 43f9 58bd 134b 7a3e eb45 3d3d
00000180: 03da 2b3e 41b7 cc3c 2339 9abd 980e 943e
00000190: b59f 49be c280 85be 2546 57be 7093 44be
000001a0: b093 d4be 8c79 bbbd f6f2 29bd 633c 8d3d
000001b0: 7a96 d2bc 4d25 24be 479a 113e 82a6 86bd
000001c0: b5a3 d13d 64a9 9a3d ec04 bbbd 482d 4f3e
000001d0: 2970 483e 16eb 423e 657d aa3d 5fad 3bbe
000001e0: 9b99 813e 403e b03d 2b43 5f3e 8033 023e
000001f0: 2ade 3c3e cd7b 803d 2d71 c83c 2d23 c0be
00000200: 977e 60be 36c0 213e dacb 453d e315 fbbd
00000210: 1c07 3cbf b1c9 d3be 5f68 1ebe e043 353e
00000220: 3606 d9be 3871 30bf ecb2 88be 8a38 14be
00000230: d802 0a3e cfad 42be 2721 d3be ab17 1cbe
00000240: fc83 a5be 3190 2f3e bfcd df3c ce6d 7bbd
00000250: ab19 cabd eb16 60be 9c7c 08bc 85e8 e73b
00000260: 14ae 1c3e 8bf0 c3bd 419c 8ebc 89ec b03d
00000270: aba5 1b3e 06ca 0a3e de7f 5c3d dea0 033e
00000280: 795d f5bd c439 993e b662 813d d1a7 593e
00000290: a56d 673d 1faf a83d 2b53 cf3d 0c9c 303d
000002a0: a581 74bb 6373 c5bd 0289 833d d7c4 eabd
000002b0: d6ac 773d 2406 863d 85b4 193e b7a4 a63e
000002c0: 4d98 6d3e 0c80 343e 4950 953d 8568 383e
000002d0: 2734 9cbc f43d 8dbd a2f1 cebd 0658 34be
000002e0: 9493 ca3c 602f f3bd 3257 19be 3326 a1be
000002f0: a9b1 85be 3784 90be 3d3f 02be 40da 9bbe
00000300: 5de7 b2be 6916 f6be a673 61be e767 adbe
00000310: 7a72 a4be d874 9fbe 8ff1 11be 897a cdbe
00000320: 7bb2 16be f0d2 23be abbc 17be 4c0d 9ebb
00000330: f75e 1ebe 8809 c23d 9302 6d3d e050 303e
00000340: 333d bcbd 9840 3ebe c30b 8a3c 1842 8fbd
00000350: 4ca6 6dbe f1ad d6be 0040 41be 2d77 e43d
00000360: e625 f23c 3212 033e 9e9f 83be 81d0 85be
00000370: c11a a93e d445 4a3e ab0e 943e 74db eb3d
00000380: 29ac 5d3e a48c 293e 53e3 18bc 994a 053d
00000390: f5f2 85be cd36 1e3d ce8f 65bc 8814 24bd
000003a0: ed01 cdbe d24f 83be d43e d6bd 73fe a8bd
000003b0: c524 74be 2586 d9be 1bb2 32be 7413 37be
000003c0: 98be 3cbd ab36 e2be 7da2 0bbf ee3d 09bf
000003d0: 1f41 f9be 535d 22be 7535 e5be 0e78 bfbe
000003e0: e2b0 a1be c8fd 03bf b264 423e aa65 8e3d
000003f0: 70e3 dcbe 13ba 1ebf 4b10 4bbe e1d5 7e3d
0.19442956 0.022346046 -0.24588642 -0.10269543 -0.03503456 0.008866549 -0.07426039 -0.23891771
0.19042216 -0.23180287 0.14087364 -0.3026404 -0.29097536 -0.19760022 -0.11374988 -0.3165393
-0.3572451 -0.31943822 -0.40909687 -0.124204844 -0.104807794 0.06113765 -0.088036336 -0.17499882
0.061853316 0.040140357 0.0090276515 0.1343687 0.073040955 0.1527486 0.1775298 -0.040221743
-0.063644715 0.10720076 0.26643056 0.25565538 0.053205755 0.03380773 0.040040933 0.07249691
0.10010408 -0.087888755 0.000533026 -0.07706394 -0.07604996 0.021319833 -0.10441708 -0.26032525
-0.15166554 -0.19709285 -0.06919679 -0.055790212 0.13478805 0.065768234 0.047917858 -0.084177405
0.046585128 -0.07340559 0.14757104 -0.09512793 -0.04192274 0.03315236 -0.034526106 0.16914274
0.021190641 -0.017153934 0.012675999 0.12082109 0.2649972 0.24720125 0.23835689 0.19442488
0.1186396 0.250913 0.2289991 -0.5309735 -0.2450451 -0.081005216 0.11990931 0.10298601
-0.06253893 0.04447239 0.07284493 0.17100728 -0.024731625 -0.0850167 -0.029856596 -0.1187951
-0.02084054 0.032537814 -0.10332183 -0.04887568 -0.15859494 -0.05297209 0.24442701 0.046209257
0.16782384 0.024989726 -0.07530429 0.28917384 -0.1968983 -0.26074797 -0.21022852 -0.19196868
-0.41518927 -0.091540426 -0.04149147 0.068962835 -0.025706518 -0.16029854 0.14219008 -0.065747276
0.10236303 0.0755184 -0.09131798 0.20232117 0.19574036 0.1903499 0.08324698 -0.18327855
0.25312504 0.08605623 0.21802966 0.12714958 0.18444124 0.06273613 0.024468029 -0.37526837
-0.2192329 0.15795979 0.04829011 -0.12260034 -0.7344835 -0.41364816 -0.15469502 0.17701674
-0.4238755 -0.6892276 -0.26699007 -0.14474693 0.13477647 -0.19011615 -0.4123623 -0.15243404
-0.3232726 0.17144848 0.027319787 -0.061384015 -0.09868177 -0.21883743 -0.00833049 0.007077279
0.1530078 -0.09567364 -0.017408492 0.086388655 0.15199916 0.13553628 0.05383288 0.12854335
-0.11980719 0.29926884 0.06317656 0.21255423 0.05650105 0.08236527 0.10123285 0.043117568
-0.003730872 -0.09641149 0.064226165 -0.114633255 0.060467564 0.0654414 0.15010269 0.32547542
0.2320263 0.17626971 0.07290704 0.18008621 -0.019067837 -0.06896582 -0.101046816 -0.17611703
0.024728574 -0.118742704 -0.14974669 -0.31474456 -0.26112106 -0.28225872 -0.12719436 -0.3043995
-0.3494214 -0.48063973 -0.22016773 -0.33868334 -0.3211859 -0.31143832 -0.14252304 -0.4013255
-0.14716522 -0.15998435 -0.14818065 -0.0048233625 -0.15465914 0.09474474 0.057863783 0.17218351
-0.0919136 -0.18579328 0.016851312 -0.06995028 -0.23207968 -0.41929582 -0.1887207 0.111555435
0.029559087 0.1279991 -0.25707716 -0.26135638 0.33028224 0.197532 0.2891744 0.11516467
0.21647705 0.16557556 -0.009331542 0.032541845 -0.26161924 0.03862648 -0.0140113365 -0.040058643
-0.40040532 -0.25646836 -0.10461202 -0.08251657 -0.23842151 -0.42485157 -0.17450754 -0.17878515
-0.046080202 -0.44182333 -0.5454481 -0.5361012 -0.48682496 -0.15855913 -0.44767347 -0.37396282
-0.31580263 -0.51559114 0.18983725 0.06952985 -0.4314227 -0.62002677 -0.19830434 0.06221569

fc1.bias f4 [120]
00000000: 1d1c 94bd 15d6 193e cbe6 8ebd 8154 1cbd
00000010: 0397 38bc fdbe bfbd 30e0 d8bd 4c88 20bc
00000020: b432 61bc 49ba 913e abef eb3e 89ff 213f
00000030: 8b44 d73d 4aeb 28bd e6ae aa3e f6ed f9bd
00000040: 3e89 83bc 26d3 843d ab32 25be 88fc 233e
00000050: 7b62 d43c 4abc 1ebd 5e1f ddbd 2ce6 3f3d
00000060: de4f 2bbd 80fb 83bd c741 b83e b23b 88bd
00000070: d9ab 21bd c545 df3d 9805 393c 41db d2bd
00000080: 3ac5 773e dbab e4bd 77c8 76bd 91cc 283f
00000090: 4dea ca3d e156 383e 8439 a13e 33da a1bd
000000a0: 0b0c 853c dbbf 4b3e 2b8a 433e 8c2a 123d
000000b0: 87c5 c53d c1de b33e 4b7e 55bd ff62 bcbe
000000c0: 300f 8b3e a02c 80bd cd5c 8e3e c23e 1cbd
000000d0: 967d 63bd 7384 68be 6779 b3bb f929 613e
000000e0: c8f6 123e 4f00 403b b38c 96bd 6601 7ebd
000000f0: 35ef aabd 6197 84bd 1178 c63e 638b 603e
00000100: 1c77 b43d c804 57be 7cb5 7abd 4712 5c3e
00000110: 20ee 9b3d 18da 533e 7dff 8a3e f087 033f
00000120: a91f 85bd 04af 023e ac77 803c 766a 4fbc
00000130: db41 b3be 6033 93bc 965e 8d3d a5ce 243e
00000140: 82f1 71bb dbc8 d0bd e44a 27be 2c06 eb3e
00000150: 9f1d 5bbd 1ea7 713e 1743 833e 3f6f 93bd
00000160: e93e 2c3f ce58 0a3d 8c54 48be deb2 093f
00000170: d835 1d3d b90a 203f 4978 2a3c 7d8f f13e
00000180: c790 04be 9858 ce3e 0826 2cbd 495e b33c
00000190: 7c79 cf3d ee3d f4bd f537 85bd 12b5 6bbd
000001a0: b562 91bd 58ac a2bd c1b4 663b e47a 86be
000001b0: 3198 25be 0c4d 2ebc 1cf2 1ebe f30d 053f
000001c0: f9eb d439 2932 a1be ef55 1bbe 12a5 7a3e
000001d0: 6449 59bd bdfe 4fbd 3645 9dbd 61a7 67be
-0.07231925 0.15023072 -0.06977614 -0.038166527 -0.011266473 -0.093626 -0.10589635 -0.009798121
-0.013744999 0.28462437 0.4608129 0.6328054 0.105111204 -0.041240014 0.33336562 -0.122035906
-0.016056653 0.06485586 -0.1613261 0.16014302 0.025925865 -0.038753785 -0.107969984 0.04685037
-0.041824214 -0.06444454 0.35987684 -0.06652011 -0.039470527 0.10901979 0.011292838 -0.102957256
0.2419633 -0.11165591 -0.060249772 0.65937144 0.099079706 0.18001892 0.31489193 -0.07902946
0.016241094 0.19897406 0.19095676 0.035685107 0.09656816 0.35130885 -0.052122395 -0.36794278
0.27160025 -0.062585115 0.27805176 -0.038145788 -0.05553969 -0.22706775 -0.005477119 0.21988668
0.14351952 0.002929706 -0.07351055 -0.062013052 -0.08346406 -0.06474186 0.38763478 0.21928172
0.08811781 -0.20997918 -0.061208233 0.21491347 0.07613778 0.20688665 0.27148047 0.513793
-0.06500179 0.12762076 0.015682064 -0.01265966 -0.3501118 -0.017968833 0.069028065 0.16094454
-0.0036917632 -0.1019456 -0.16337162 0.45903146 -0.053495046 0.23598906 0.25637123 -0.07198953
0.67283493 0.033776097 -0.19563502 0.53788555 0.038381428 0.6251636 0.010404655 0.47179785
-0.12945853 0.40301967 -0.042028457 0.021895545 0.10130593 -0.11925875 -0.065048136 -0.05754573
-0.07098905 -0.07943028 0.0035202953 -0.26265633 -0.16171338 -0.010638487 -0.15522045 0.5197441
0.00040611604 -0.31483582 -0.151695 0.24477032 -0.053048506 -0.050780047 -0.076792166 -0.22622444

fc2.weight f4 [84, 120]
00000000: efb4 b8bd 6f41 dbbd 7c04 d6bd c92f 4d3d
00000010: 70e1 fa3c a347 61bd cdab c6bd ffa5 abbd
00000020: e91b 4b3d f2a8 5ebe c43e 66be 475c 8cbd
00000030: 020a a43c ae61 2a3d cac7 8839 6c3e 80bd
00000040: ae3f 2b39 00b8 09be 7219 353d 5637 10be
00000050: b5bd babd 06ad e7bd 4707 363e 717f d2bc
00000060: d018 6fbd aaee 4bbd e2da b7bd 4558 a0bc
00000070: 8474 cdbb 4c91 4fbe e05f 34bd 3cc1 8ebd
00000080: d06b 29bd 375a 89bc 9022 e0bd cc27 a6be
00000090: 3225 84bd b9a5 4a3e 52b6 fabc 0717 59bd
000000a0: 7daa 17bd bc0c 683c af11 98bd 8df8 dbbd
000000b0: 9996 bbbd 7855 50be 60d8 233c df98 28bd
000000c0: b086 74be bc14 6f3d 236c 8cbe dc53 4ebd
000000d0: 194e 77bd 7ee9 c3bd 4607 a83d aada 10be
000000e0: 13f2 a0bd e66c 903c 5797 733c 2b61 a2bd
000000f0: a0a4 b83b 3571 54bd f63e 45be 3429 17be
00000100: 249f 123d 9086 3fbe 06ba 943d f65c a8bd
00000110: bc39 de3d 9a4e a0be 9351 9fbe 191c 74be
00000120: 26b0 aebc 6d50 90be 01dc 753d 2482 b83c
00000130: 2f3a 053d ddfd 7cbc 2e84 e5bd 62cc c33d
00000140: ca8c 793d e7dd 8abd 6878 1d3d c110 b63a
00000150: 13e5 cdbc 5a1a 0cbe fda1 10bb 6416 ac3d
00000160: bdd6 8c3d 880e aa3d 80d5 7cbd 7409 8c3d
00000170: 4659 083e 40db 33bd 0837 59bc 3b44 44be
00000180: e306 b53c 68ba f53c 21f3 1fbd 0635 83be
00000190: 6ca7 bebd 591e 9dbd 7331 88bd 05b7 643d
000001a0: a29f a5bd e2f0 d5bd 1741 01bc bce0 fbbd
000001b0: 7e91 6bbd 787c 9ebd ec02 9dbd 56f7 fdbd
000001c0: 860a 9f3d b00a 44be 8793 403d 64b4 28bd
000001d0: a188 54be 28ea c1bc 79c8 9f3d c285 dfbd
000001e0: e14c 813c 6188 5e3d 93fe 4f3d 6ded 89bd
000001f0: b8bc 363c 280f e5bc 57d4 7c3b 52de 11be
00000200: 6284 2a3d 11ac 30bc a321 2dbb 518b cb3c
00000210: a599 e03c e013 873d 786a 53bd c975 8cbd
00000220: 4b51 1cbd ae77 04be 18d0 c2bc 98ad 9ebc
00000230: 1c52 d2bc 23e9 aabd 8158 38be 6036 6ebc
00000240: a9ef 8abd 203f 4a3d cc0e 1ebe e849 bcbc
00000250: 1f44 8cbd b91d 63bc 348b 693d 704b bbbb
00000260: 174e 353d 0de0 f8bd f457 0ebd c489 40bd
00000270: 66c5 58bd bc35 fabc 8c08 2abd 72b6 02bd
00000280: be26 b33d a2c1 fa3c 5961 30bc 536f 4d3c
00000290: 4382 343d 6018 9ebd af5c 86bd f344 053c
000002a0: 7475 2b3c 081c c53c 2cb2 81bd 3925 b9bd
000002b0: cca2 84bc dc43 a4bc ccae c9bd 0d98 6fbd
000002c0: 95cb 2dbe a00b 5dbc 9640 e3bc e7be 143c
000002d0: e82c a3bc 1064 45bd c91a 2bbd d831 0fbe
000002e0: 4b56 263d 971b 4dbe 6c3d 1c3d e5c2 a13d
000002f0: ac4e 983d 81c9 d4bd ca4b 37be 4cad 72bd
00000300: 0016 d13b d4e0 0abe 263b 073d 6863 b6bd
00000310: bc04 c4bd eca7 833d bd17 043d 6c27 0abe
00000320: bcd8 b03d f04b 6ebc 9a72 51bd 1463 84bc
00000330: 462d 42be 656d 61bd f842 c3bc 275d b7bd
00000340: 93ac 2dbe d8ce c33c ae50 80bd dc56 d5ba
00000350: f091 59bc 4069 0e3d 58f4 8dbc b6ed bd3c
00000360: b801 193d b750 9dbd 02cd a53d c0ab bf3c
00000370: e004 9a3b 645c 873c 4e08 ccbd 1929 0fbd
00000380: 2ce7 85bc 4ea1 15be 644b 5e3d 5088 013c
00000390: 1f1d e4bd 663d 9abd d4e2 d5bd 758d 25be
000003a0: 549c 0dbd dfff 30be d6c6 623d 8687 acbd
000003b0: 89d1 f8b9 bd1a a7bd 60da 7b3d 98cc a2bd
000003c0: ed96 6ebe a472 5f3c 4aa9 aa3b 3c0b 4dbd
000003d0: abdc b3bb 1509 07bd cf10 c9bd b1ab 8ebd
000003e0: 40d8 c7be 6931 74be b925 80be db27 263d
000003f0: f266 8dbd 1f54 a6bd ea2c 9f3d 928e f4bc
-0.09018885 -0.1070584 -0.10450074 0.0500944 0.030625075 -0.05499996 -0.09700737 -0.083812706
0.049587164 -0.21744135 -0.2248488 -0.06853538 0.020024303 0.04159706 0.00026088796 -0.06261906
0.00016331553 -0.13449097 0.04421372 -0.14083609 -0.09118215 -0.113122985 0.17776214 -0.025695534
-0.058373272 -0.049788155 -0.089772955 -0.01957334 -0.0062699933 -0.2027027 -0.044036746 -0.0697045
-0.041362584 -0.01676665 -0.10944092 -0.32452238 -0.06452407 0.1978978 -0.030604515 -0.053000476
-0.037027825 0.014163192 -0.07425248 -0.10740767 -0.091595836 -0.20345104 0.010000318 -0.041161414
-0.23879504 0.058369383 -0.27426252 -0.050372943 -0.060377214 -0.095660195 0.08204512 -0.14145914
-0.07858672 0.017630052 0.014867625 -0.079286896 0.005634859 -0.051865775 -0.19262299 -0.14761811
0.0357963 -0.18703675 0.07262044 -0.08220856 0.10850856 -0.31309968 -0.31116924 -0.23838843
-0.021324228 -0.2818636 0.060024265 0.022522993 0.03252619 -0.015441385 -0.11206852 0.09560467
0.060925283 -0.06780606 0.038444906 0.0013890491 -0.025133645 -0.13681927 -0.0022069209 0.08402708
0.068768956 0.08303553 -0.061727047 0.068377405 0.13315305 -0.043910265 -0.013257749 -0.19166653
0.02209801 0.029996112 -0.039050225 -0.2562639 -0.09309277 -0.07671804 -0.06650057 0.055838604
-0.08087088 -0.104463354 -0.007889054 -0.12298724 -0.0575118 -0.07738584 -0.07666573 -0.12400691
0.07765679 -0.19144702 0.047015693 -0.04118766 -0.20755245 -0.023671225 0.07801909 -0.10914184
0.015783729 0.05432928 0.05077989 -0.067347385 0.0111533925 -0.027961329 0.0038578713 -0.14244965
0.041630156 -0.010783211 -0.0026417754 0.024846705 0.027417013 0.06595588 -0.05161521 -0.06858403
-0.038163465 -0.12936279 -0.023780867 -0.019369885 -0.025673918 -0.083452486 -0.18002512 -0.014539331
-0.06783993 0.049376607 -0.15435332 -0.02298446 -0.068489306 -0.013862067 0.05701752 -0.00571578
0.044263925 -0.12152109 -0.034751847 -0.047006384 -0.05292263 -0.0305432 -0.041512057 -0.031912275
0.08747624 0.03060991 -0.010765397 0.012538749 0.04406954 -0.07719493 -0.06560647 0.008134115
0.010465015 0.024061218 -0.06332812 -0.09040303 -0.016190909 -0.02005189 -0.09847793 -0.058494616
-0.16972192 -0.013491541 -0.027740758 0.009078718 -0.019918874 -0.04819113 -0.04177359 -0.13983858
0.04060964 -0.20030056 0.038144514 0.07898501 0.074368805 -0.10389996 -0.17900005 -0.0592473
0.0063807964 -0.13562328 0.033015393 -0.08905679 -0.095712155 0.06428513 0.0322492 -0.13491601
0.08635089 -0.014544472 -0.051134683 -0.016160525 -0.18962583 -0.055035967 -0.023835644 -0.08953314
-0.16960363 0.023902342 -0.062653884 -0.0016276496 -0.013279423 0.034768343 -0.017328426 0.023184638
0.037355155 -0.07681411 0.08095743 0.023397326 0.004700288 0.016523547 -0.099625215 -0.034951303
-0.016345583 -0.14612314 0.054271117 0.007906035 -0.11138367 -0.07531242 -0.10443655 -0.16167243
-0.034572914 -0.17285107 0.055365406 -0.084242865 -0.00047458362 -0.08159397 0.061487556 -0.079491794
-0.23299761 0.013638172 0.005208169 -0.050059542 -0.005488952 -0.032967646 -0.09817659 -0.06966341
-0.39032173 -0.23846973 -0.2502878 0.040565353 -0.06904401 -0.081215136 0.077722386 -0.02985314

fc2.bias f4 [84]
00000000: 4420 b0be 0134 19be 942e 3fbe 8496 513e
00000010: ba19 7e3e 3c8a 053e 8f27 2fbe 3b7f babe
00000020: a483 b8bd 1c90 97be 7e5e 4f3e e656 6ebd
00000030: 7008 5fbe 6d9f e23e fab5 fa3e 35e4 2d3e
00000040: 3df7 0c3d 85ef ac3d 919c 093f eb27 743d
00000050: 4f6e 14be 2759 91be f9b1 dcbd fd40 65bd
00000060: 372d c13e 268d 213c 165c 8f3d f43d a5bd
00000070: e8db 033f 45b2 ec3e dc80 a13e 5cf0 7f3d
00000080: ab42 78bd 1bbf 40be 9cec 1cbe 675c 8cbd
00000090: 5df9 f83e b475 ffbd 7417 01be 9dc4 093f
000000a0: 7222 793e bdf0 aabc 9985 c83e e9eb 0abe
000000b0: 9f05 61be 6b6e 133f f6b9 653e 5919 efbd
000000c0: 8aff 1ebe 907b 243f 5122 093e faa2 aebd
000000d0: 709f 3a3e d22b 5e3f c087 0ebe 9e85 db3d
000000e0: b1c0 2abc e744 3c3d 02c7 653d fac8 3d3e
000000f0: a8cf 22be 925d a43e d88e 393e c157 9bbd
00000100: 0e4f 833e b384 10be 52c8 d23e eccf babe
00000110: 0a38 cc3e 0761 0c3e 67a6 46be f371 123e
00000120: bb8b a1bd 237f 1b3c 4e31 85be ae84 71be
00000130: 0cc4 58be 6fb2 adbe 3336 353e 33ed 7dbe
00000140: 810c f23e 63b9 603e 1cbf 65bd 9d8a d7be
-0.34399617 -0.14961244 -0.18670112 0.20467573 0.24814501 0.13041013 -0.17104934 -0.36425194
-0.090094835 -0.29602134 0.2025089 -0.05818834 -0.21780562 0.44262257 0.48966962 0.16981585
0.034415472 0.08444122 0.53754526 0.05960838 -0.14495204 -0.2838833 -0.10776133 -0.05597018
0.3772981 0.009860313 0.06999986 -0.08068457 0.51507425 0.4622976 0.31543624 0.062485084
-0.060610455 -0.18822901 -0.15324634 -0.06853562 0.4862775 -0.12473622 -0.12606603 0.53815633
0.24329546 -0.020866746 0.39164427 -0.13566555 -0.219748 0.5759036 0.2243422 -0.116747566
-0.15527168 0.6425104 0.13391997 -0.08527179 0.18224883 0.86785614 -0.13918972 0.10718845
-0.010421918 0.045964148 0.05609799 0.18533698 -0.15899527 0.32102638 0.18120897 -0.07585097
0.2564625 -0.1411312 0.41168457 -0.36486757 0.39886504 0.13708888 -0.19399415 0.1430128
-0.078879796 0.009490761 -0.2601418 -0.2358577 -0.21168536 -0.33925197 0.17696457 -0.24797516
0.47275165 0.2194572 -0.05609046 -0.4209794

fc3.weight f4 [10, 84]
00000000: 7144 0abe d8e9 ccbd 3ebe 02be 0966 203d
00000010: e133 b23d 5628 95bc 25c3 07be cea1 91bd
00000020: 4ca7 03bf c093 05be 959f be3d 64bd 073e
00000030: c7e4 cabc 2155 873d 0902 90be ee78 a6be
00000040: b1dc 8d3d a3bc bb3d 4872 29be 1c6b 7bbe
00000050: af23 2bbe fbdb e5bd f866 fdbe 428c 60bd
00000060: 263f 28bd d4f6 8e3d eb39 3d3d bd7b 113e
00000070: 48a6 dbbd 23ed 9d3c 1226 19bd 42c0 f63d
00000080: 3c67 c7bd bc2d 13be 64aa 04bc 6dfd 31be
00000090: 5c06 8ebc b2da cdbd 9c41 073e b644 ac3d
000000a0: ac83 44be 707a 0bbf 42e1 d83d e81a 11be
000000b0: 62ea 4bbe 90f2 fa3d a538 bebc 295b 3dbe
000000c0: 527b 07bd 34e8 b5be b692 90be 8b8b 6ebe
000000d0: 9e49 a7bd aa9f 82be d781 94be 1eee 8bbe
000000e0: 1405 0fbe b342 d7bd bab8 8ebe 5d98 41be
000000f0: 4513 46be 8960 82bd fc01 c23c 02db c7be
00000100: f4d6 4ebe df38 42be 7e55 c9be 7b00 94be
00000110: 33a0 78be 0c7f d8be 242e 1ebe 8d94 bf3d
00000120: b85b 70bd f9ee 7a3d 2367 08be c972 9dbd
00000130: 41c5 41be 4b95 4cbe 09b7 16be 418c bdbe
00000140: e2fe 9dbe c4cf 0ebe da8d d4be 87b5 36be
00000150: 6e6c bebe aed0 d9bd 1f04 da3d ca60 9b3d
00000160: 62ce 30be 4243 a6be e5cb 29be 99f6 a83c
00000170: 0356 14bf 6c13 27be 34af b7be 524f 1e3d
00000180: 65be 253e 10b3 abbe 9a6c 93bd adee ddbe
00000190: 88a1 44be 18df a1bd d037 a5bb 49ef d5be
000001a0: 73fc 42be b4c9 f2be 21d1 5cbf 9894 133d
000001b0: 5529 97bd cfe6 4abe 9f53 9ebe a117 ac3d
000001c0: be31 f6be ba0c 7ebe 0330 1d3e 82fd a03d
000001d0: 37ff c8be bbdb 3cbf 881d ecbd f2cc 93bd
000001e0: b2a3 2cbe 7397 a3be cd02 cdbe c194 88bd
000001f0: fb15 203e d13c 99be e35e 49be 08e4 79bd
00000200: 9868 1cbe 2ba8 8c3d 69c3 2dbe 15fd 0cbe
00000210: f61f eebd c2fc eabe 34be 6dbc 9bfd a4bd
00000220: 72ca c2bd c1be e2be 6834 23be b725 c9be
00000230: abd2 dbbd d6b7 853d 3893 bf3b 4871 16bf
00000240: e30d dfbd 9dae 44bd 573c 063e 4681 2abe
00000250: 0d57 3c3d fbb9 16be 881e 4f3d 7bbd 2fbf
00000260: c26f c0be 0667 f0bd 4994 24bd 1900 2ebe
00000270: e479 8ebd 7220 e43d bace 46be d6d5 e2be
00000280: aa4d 82be 2190 30be 87b8 87bd 1b78 f0be
00000290: 246c 54be c779 c53d 1cf9 76bf 198a babe
000002a0: 32e0 c7be 4488 80be 5d4b 983d 4ffc 78bd
000002b0: fbce d7bd a7b8 6ebe 6ede 10be 76f4 56be
000002c0: 5804 e1bd 23d8 4a3e 54ca 843d c585 07bd
000002d0: 4ad8 253d 8b82 b23d 6a1c aabd 6184 23be
000002e0: 246f 3d3d 6d8a aebd 81c4 2a3b a677 7e3c
000002f0: db36 8abe 9237 663d 7ee9 54be 7fa7 97bd
00000300: 91a1 94bd 4d73 83be 4b6a 6fbd 9624 82be
00000310: 0252 263d 5f94 e4bc 8606 8ebe 8133 0fbe
00000320: c04a 81be 4add 3ebe 498f 22be e260 02be
00000330: ffe8 57be ed75 9abe c061 69bb 98d6 c63d
00000340: 9dbe c7bd 901c c8be 3ed3 b23d 45f8 80bd
00000350: 7b46 bdbe df91 fbbd ceee 5fbc 5786 29be
00000360: 634c 013e 13cc 433d 03fa f1bd e0bc efbe
00000370: 744d c53d 3a69 0cbc eb7f 2cbf 9d09 633d
00000380: be07 903c 86da 20be e71e 6fbd 084b 88be
00000390: 5749 d4bd 80ac 64be f990 123d c9b0 a7be
000003a0: bbe1 06be 099e bebe be8d 8fba 1bfd bbbc
000003b0: 2a12 cf3c b11e 2fbe f0bd 39be 1c9c 97bd
000003c0: 14f3 47be 675f 91bd 26ff 31be fbfa a1be
000003d0: 7509 43be c801 6cbe bda9 38bd afde 19bf
000003e0: ccae 26bd 1058 dfbd e19b 01bf 47ce ebbd
000003f0: 7710 ebbe 9e3f 88be 38fe 87be 372d 85bd
-0.13502671 -0.1000554 -0.12767884 0.03915981 0.08701301 -0.01820771 -0.13258035 -0.0711094
-0.5142715 -0.13044643 0.093077816 0.1325584 -0.024767293 0.06608034 -0.28126553 -0.32514137
0.06926859 0.09166839 -0.16547501 -0.24552578 -0.16712831 -0.112235986 -0.4949262 -0.05482126
-0.041075848 0.069806725 0.046197813 0.14207359 -0.10725075 0.019278115 -0.037389822 0.12048389
-0.09736487 -0.14372915 -0.008097265 -0.1738183 -0.017337017 -0.100514784 0.13208622 0.08411543
-0.19190854 -0.544837 0.105898395 -0.1417042 -0.19913629 0.122532964 -0.02322037 -0.18491806
-0.03307659 -0.3552872 -0.28236932 -0.23295419 -0.08168338 -0.2551244 -0.2900531 -0.27330106
-0.13966781 -0.10510769 -0.2787531 -0.18905778 -0.19343288 -0.06366069 0.023682587 -0.39034277
-0.20199186 -0.18967007 -0.39323038 -0.28906617 -0.24279861 -0.4228443 -0.15447289 0.09354506
-0.05868122 0.06126306 -0.13320594 -0.07687909 -0.18922903 -0.19978826 -0.1471826 -0.37021068
-0.30858523 -0.13946444 -0.41514474 -0.17842685 -0.371921 -0.106355056 0.10645317 0.075868204
-0.17266229 -0.3247319 -0.16581686 0.0206254 -0.57943743 -0.16316003 -0.35875857 0.038649864
0.16185911 -0.3353505 -0.071984485 -0.43346158 -0.19202244 -0.0790388 -0.0050420538 -0.41784123
-0.19041614 -0.47419512 -0.86256605 0.036030382 -0.0738093 -0.19814609 -0.30923173 0.08402944
-0.48084825 -0.24809542 0.15350346 0.07860853 -0.39257213 -0.7377278 -0.1152907 -0.072168246
-0.1685932 -0.31951484 -0.400412 -0.066689976 0.15633385 -0.29929212 -0.19665103 -0.061008483
-0.15274274 0.06868013 -0.16969074 -0.13768418 -0.1162719 -0.45895964 -0.01451068 -0.08056184
-0.0951127 -0.4428616 -0.1593796 -0.39286587 -0.10733541 0.065292045 0.0058464073 -0.58766603
-0.108913206 -0.048018087 0.13108955 -0.16650876 0.045981456 -0.14719383 0.050566226 -0.686485
-0.37585264 -0.117384 -0.04018048 -0.16992225 -0.069568425 0.11139001 -0.19414797 -0.4430377
-0.25449878 -0.17242481 -0.06626993 -0.46966633 -0.20744377 0.09642368 -0.9647386 -0.36433485
-0.39038235 -0.25103962 0.074362494 -0.060787495 -0.10537525 -0.23312627 -0.1414735 -0.20991692
-0.10987157 0.19809012 0.064839035 -0.033086557 0.040489472 0.08716305 -0.08306201 -0.15968467
0.04624857 -0.08522496 0.0026057067 0.015531456 -0.26994976 0.05620534 -0.20792195 -0.07404994
-0.07257379 -0.25673905 -0.05845098 -0.25418538 0.040605552 -0.02790278 -0.27739352 -0.13984491
-0.25252342 -0.18639103 -0.15874971 -0.1273227 -0.21084975 -0.30168095 -0.0035611242 0.09708899
-0.097531535 -0.3908429 0.087316975 -0.06297354 -0.36967835 -0.12283682 -0.013667775 -0.16555153
0.12626795 0.047802042 -0.11815264 -0.46823788 0.09633914 -0.00857001 -0.6738269 0.05542909
0.017581817 -0.1570836 -0.05837908 -0.26619744 -0.10365551 -0.22331429 0.035782788 -0.32752064
-0.13172047 -0.37229946 -0.0010952277 -0.022947839 0.025277216 -0.17101552 -0.18138862 -0.074028224
-0.1952632 -0.07098275 -0.17382488 -0.31636795 -0.19046576 -0.23047554 -0.04508375 -0.60105413
-0.040694043 -0.109054685 -0.5062848 -0.11513954 -0.45911 -0.26611036 -0.2656114 -0.06502765

fc3.bias f4 [10]
00000000: fa26 f9bd b4ce e4be 1ec2 fcbd 513e 8a3e
00000010: a305 983e 9c75 8ebe 5a21 fb3d bd87 40be
00000020: d4f9 943e 4c98 5aba
-0.12165637 -0.44688952 -0.123417124 0.2700067 0.296918 -0.27824104 0.12262221 -0.1880178
0.29096854 -0.0008338734
