Project/Project_2/model_stage3.pth (torch_old, 966357 bytes, 22 tensors)

weight f4 [8, 3, 5, 5]
-0.0036852055 -0.16092432 -0.15716447 -0.024757372 -0.028412746 -0.0626918 -0.07937869 -0.15774967
-0.14214993 0.06313628 -0.15466987 -0.14382812 -0.05235156 -0.012185485 -0.07353926 -0.10437725
0.05505235 -0.16917846 0.061791275 -0.15363666 -0.15341972 -0.093179815 -0.0018615803 -0.10972915
-0.1734736 0.19844991 0.18105645 0.04912307 0.18683538 0.005913245 0.17624265 0.022139065
0.12667459 0.15223977 0.05179635 0.043220628 0.08373469 -0.025213998 0.17529748 0.07446766
-0.011570702 0.033226352 0.17178589 0.19509709 0.017181378 0.16322112 0.082126305 0.1664942
0.15214507 0.15718307 0.10664999 0.08634037 -0.04687743 -0.01163218 -0.07366751 -0.082699396
0.05628166 0.07607499 -0.03521466 -0.104915135 0.030613951 -0.10144653 -0.041914478 0.08030885
-0.057848636 0.03554741 -0.06560247 0.06654125 -0.11534973 -0.061513018 -0.10223373 0.06389854
0.097030625 0.06500281 0.07851639 0.09114597 0.040743124 -0.1441408 -0.030142648 -0.12536117
0.11948402 -0.007177925 -0.007997901 -0.1528808 -0.12518829 0.030294383 0.043111112 -0.04320164
-0.13424787 0.009570073 0.069383286 0.06488522 0.10464929 -0.0030234293 -0.021023305 0.110157646
0.19669193 0.048273295 0.14784725 0.09201995 -0.061432615 -0.033038363 -0.23018432 -0.23206261
-0.17627858 0.03135145 -0.06531733 -0.20762223 -0.25166237 -0.2924895 0.0018000521 0.06444885
-0.11859877 -0.10030319 -0.18494067 0.14078918 0.02605343 0.061846457 -0.038962614 -0.03159555
0.08608065 0.18366002 0.055406146 -0.0062878146 0.12105358 0.018238394 -0.028657926 -0.1573845
-0.024358878 -0.030032659 0.05399479 0.0812872 -0.067363605 -0.1298186 -0.1375279 0.08406839
-0.058522534 -0.03141882 -0.040855866 -0.046631183 0.0012201818 0.14455205 0.02137248 0.107739404
0.13124311 0.096112065 0.20494467 0.18709272 0.13983364 0.22650187 -0.11026789 -0.10646278
0.02203077 0.15133281 0.19004726 -0.06251863 0.0154461805 0.023922129 0.08558053 0.033930585
0.115240455 -0.036865506 0.13858655 0.08909026 0.14993995 0.0231298 -0.0781368 0.12399915
0.08068824 0.09887845 -0.085045196 0.00980527 0.1224854 0.125384 0.24214517 -0.17913671
-0.23635693 -0.009639212 -0.09850743 -0.082534164 -0.17283936 -0.08443081 -0.09589522 -0.13843931
-0.046708215 -0.16314648 -0.12211829 -0.14599545 -0.028340379 0.07580668 -0.25086743 -0.26636308
-0.17594035 -0.13669014 -0.07986572 -0.27277094 -0.26200357 -0.15784083 0.08761849 -0.064957716
-0.012585976 -0.032505915 0.05511355 -0.029847095 0.20669608 -0.07320808 0.08439255 0.11007179
0.0031543698 0.20081764 0.0057062116 -0.027715635 -0.06314149 0.11091023 0.053918723 -0.055475645
-0.01778375 0.04299789 0.12393966 0.033594847 0.038868878 -0.12670991 0.124947764 0.1353836
0.21277227 -0.0025615809 0.09731116 0.20056559 -0.0014124518 0.13678442 0.06087278 0.013862205
0.18237586 0.1371383 0.04584839 0.080580935 0.09070413 0.12610352 0.16414772 0.17834702
0.10407595 0.071890436 0.075171925 -0.03329513 0.009848302 -0.012738084 0.11703955 -0.055150658
-0.009639035 -0.081320025 -0.084526554 0.08317556 0.027898286 0.045604646 0.07330589 0.0832172
00000000: 7d83 71bb 58c9 24be b9ef 20be f9cf cabc
00000010: d9c1 e8bc 8f64 80bd 4b91 a2bd 2189 21be
00000020: c08f 11be 984d 813d c761 1ebe ae47 13be
00000030: 976e 56bd a1a5 47bc c09b 96bd bdc3 d5bd
00000040: 937e 613d 1e3d 2dbe d918 7d3d ee52 1dbe
00000050: 0f1a 1dbe 0fd5 bebd 4500 f4ba adb9 e0bd
00000060: 10a3 31be 7436 4b3e dd66 393e 4635 493d
00000070: c651 3f3e e5c3 c13b f478 343e fc5c b53c
00000080: fcb6 013e bee4 1b3e 6928 543d 1d08 313d
00000090: 187d ab3d 968d cebc 2f81 333e 8082 983d
000000a0: 0b93 3dbc 5b18 083d a4e8 2f3e 88c7 473e
000000b0: f6bf 8c3c 7023 273e d631 a83d 757d 2a3e
000000c0: ebcb 1b3e 99f4 203e 4f6b da3d 38d3 b03d
000000d0: 8c02 40bd e694 3ebc fede 96bd 4d5e a9bd
000000e0: 9987 663d 34cd 9b3d 3f3d 10bd bfdd d6bd
000000f0: 1cca fa3c 33c3 cfbd 84ae 2bbd f778 a43d
00000100: b1f2 6cbd 299a 113d 965a 86bd c746 883d
00000110: 7b3c ecbd 13f5 7bbd eb5f d1bd 3ddd 823d
00000120: feb7 c63d 3120 853d 33cd a03d bdaa ba3d
00000130: 43e2 263d a599 13be b7ed f6bc ae5e 00be
00000140: 0ab4 f43d cd34 ebbb a109 03bc c98c 1cbe
00000150: 5c31 00be ed2b f83c 4795 303d 34f4 30bd
00000160: 4678 09be cccb 1c3c d318 8e3d 8be2 843d
00000170: 5e52 d63d ba24 46bb 1139 acbc 559a e13d
00000180: 9c69 493e 38ba 453d 4565 173e f574 bc3d
00000190: c4a0 7bbd 3c53 07bd 70b5 6bbe d2a1 6dbe
000001a0: 5f82 34be 616a 003d 18c5 85bd ec9a 54be
000001b0: e4d9 80be 2fc1 95be baef eb3a c2fd 833d
000001c0: e9e3 f2bd c26b cdbd 1661 3dbe 0a2b 103e
000001d0: 016e d53c b652 7d3d 4397 1fbd 566a 01bd
000001e0: 0d4b b03d 5f11 3c3e 8ef1 623d 030a cebb
000001f0: f0ea f73d af68 953c 07c4 eabc 6729 21be
00000200: 458c c7bc 0d07 f6bc a429 5d3d e779 a63d
00000210: eef5 89bd 2bef 04be 1dd4 0cbe 0c2c ac3d
00000220: 53b5 6fbd 05b1 00bd 7b58 27bd 5700 3fbd
00000230: 82ee 9f3a 7405 143e 5715 af3c 7aa6 dc3d
00000240: 9864 063e 67d6 c43d 04dd 513e 3c95 3f3e
00000250: 8d30 0f3e 1bf0 673e 22d4 e1bd 2809 dabd
00000260: e079 b43c fdf6 1a3e c09b 423e c409 80bd
00000270: fa11 7d3c 57f8 c33c d844 af3d ccfa 0a3d
00000280: 3003 ec3d 4900 17bd a2e9 0d3e f474 b63d
00000290: dc89 193e b57a bd3c 3006 a0bd 44f3 fd3d
000002a0: e03f a53d c980 ca3d 2d2c aebd 48a6 203c
000002b0: a0d9 fa3d aa64 003e e7f4 773e 9d6f 37be
000002c0: 8d07 72be c9ed 1dbc 43be c9bd ac07 a9bd
000002d0: cdfc 30be 0fea acbd b764 c4bd 09c3 0dbe
000002e0: 1d51 3fbd df0f 27be 2719 fabd d57f 15be
000002f0: 152a e8bc 8840 9b3d b271 80be be60 88be
00000300: b529 34be 80f8 0bbe a390 a3bd a2a8 8bbe
00000310: 5525 86be 07a1 21be 5371 b33d 8d08 85bd
00000320: 6935 4ebc ec24 05bd bfbe 613d e581 f4bc
00000330: 23a8 533e 1eee 95bd 00d6 ac3d 526d e13d
00000340: 8bb9 4e3b 24a3 4d3e 2cfb ba3b e60b e3bc
00000350: 5350 81bd e724 e33d e1d9 5c3d 6e3a 63bd
00000360: 3aaf 91bc 8e1e 303d 14d4 fd3d c09a 093d
00000370: f934 1f3d 3ec0 01be 9de4 ff3d 00a2 0a3e
00000380: f9e0 593e 32e0 27bb 134b c73d 1161 4d3e
00000390: 0522 b9ba 3711 0c3e bc55 793d 4d1e 633c
000003a0: bdc0 3a3e fc6d 0c3e 85cb 3b3d 9e07 a53d
000003b0: 16c3 b93d 4821 013e 5716 283e 9aa0 363e
000003c0: c625 d53d 4b3b 933d bdf3 993d 7960 08bd
000003d0: c65a 213c 66b3 50bc 6eb2 ef3d a8e5 61bd
000003e0: 0bed 1dbc 1d8b a6bd 421c adbd f357 aa3d
000003f0: f28a e43c f0cb 3a3d 6621 963d c86d aa3d

bias f4 [8]
0.018216997 0.025810694 -0.04346971 -0.19141246 0.07395789 0.15376903 -0.20356233 -0.16019748
00000000: d03b 953c f370 d33c 4b0d 32bd a101 44be
00000010: 3c77 973d a175 1d3e a572 50be cf0a 24be

weight f4 [16, 8, 3, 3]
0.08331472 0.07869766 0.11770842 -0.11922517 -0.09114067 0.0042987526 -0.08318512 -0.088704206
0.03759192 -0.24567261 -0.29462013 -0.20317079 -0.08872913 0.07914788 -0.020896537 0.20793721
0.40324533 0.25781155 -0.0035307014 -0.106569685 -0.1591034 0.10426282 -0.050972596 0.06915692
0.24425946 0.1145521 -0.091170415 0.12152444 0.22359478 0.06737747 -0.0926368 0.08018982
0.031171367 -0.22667381 -0.16836028 -0.015975708 -0.1069029 -0.17851147 -0.024860216 0.0076253884
0.06547884 -0.25478768 0.14490193 0.21025524 0.15084651 -0.1548582 -0.19212033 -0.14875957
0.0026140031 -0.06911528 0.083307125 0.17651395 0.119742885 0.112175494 0.15054433 0.20565346
0.18122652 -0.034268923 -0.021739714 -0.07880119 -0.23657523 -0.1748586 0.0061001317 0.07576941
0.02446339 0.06407866 -0.052195773 -0.09855076 0.067099795 -0.0808145 0.023326596 -0.020688077
0.19886474 0.11658139 0.24579251 -0.013636796 -0.09569926 0.07874933 -0.019762011 -0.15172766
0.016998278 -0.2737737 0.032343294 0.1874812 -0.070046216 -0.0104031665 0.002001571 -0.012669791
0.1884669 0.015399071 -0.15286504 -0.028440826 0.16919275 -0.03648738 0.07417147 0.11432176
0.011254342 0.05003836 0.2832792 0.1681937 0.061735537 0.0073574623 -0.006251252 0.0642791
-0.0086420495 0.042012468 0.017242186 -0.1477101 -0.112033054 0.11620331 0.15765397 -0.025779575
-0.07202567 -0.13037965 -0.05821598 0.057572022 0.113701046 -0.077803776 0.0017015262 0.071794614
0.09450078 -0.031586245 0.12067459 0.14489086 0.14787309 0.1372662 0.15111303 0.17545992
0.03147862 0.04415068 -0.026742283 0.01990774 -0.17073993 -0.19683428 -0.18039745 0.038788144
0.062846385 0.12283238 -0.087312244 0.018871062 0.011050732 -0.024607247 -0.085707925 -0.124612205
-0.15463556 0.006417962 -0.12789959 0.093287766 -0.051705148 -0.056798585 -0.058569208 -0.068882324
-0.020189313 -0.12505892 -0.13650659 -0.07317762 -0.11126987 0.059245255 0.09386808 -0.011582544
0.078968056 -0.0041914517 -0.0814655 0.04077286 0.11861957 -0.06550829 0.13825986 -0.031165943
-0.11042243 -0.09313783 -0.227264 0.07369106 0.16902918 0.13810453 0.015525368 0.0908537
0.0006509923 0.0046425224 -0.14212573 -0.082408294 -0.34152856 -0.20555675 -0.032910343 -0.22778553
-0.13438317 0.038644057 -0.19959739 -0.012772326 0.042470787 -0.2509228 -0.09267571 -0.082502246
-0.23944983 -0.24644111 -0.07167752 -0.048654843 -0.1062065 -0.09483568 -0.0018912619 0.049942404
-0.04196186 0.060959022 -0.044849616 0.11921987 0.0444843 0.07921411 -0.05808358 -0.017180381
-0.005399899 0.029921845 0.033675835 0.05981051 0.05454004 -0.052982222 -0.13098688 0.034962717
-0.07529707 -0.0013325354 -0.077254295 -0.009505129 0.15545464 0.1241564 0.027250445 0.17668737
0.03333329 -0.0038071708 0.005572269 0.021341894 -0.019222675 0.0026416676 0.091725215 0.08704811
-0.093560845 -0.027949695 0.059204515 0.14735384 0.11161615 0.14398724 0.119484484 -0.010923074
0.14012034 -0.021479256 0.012249753 -0.19334395 0.09316249 0.0022922414 0.034254335 0.12100541
0.12602058 0.025603848 0.14524953 0.052098267 0.07236946 -0.10506754 0.22756688 -0.076651715
00000000: e8a0 aa3d 3d2c a13d 1d11 f13d 532c f4bd
00000010: f6a7 babd 8ddc 8c3b f65c aabd 8daa b5bd
00000020: fcf9 193d 9a91 7bbe 73d8 96be 010c 50be
00000030: 9eb7 b5bd 4918 a23d 372f abbc 7eed 543e
00000040: 2c76 ce3e e0ff 833e 5763 67bb 3541 dabd
00000050: 00ec 22be bf87 d53d a4c8 50bd 25a2 8d3d
00000060: 271f 7a3e 4b9a ea3d 8eb7 babd cee1 f83d
00000070: 08f6 643e 33fd 893d 5db8 bdbd 8f3a a43d
00000080: 185b ff3c 2e1d 68be a366 2cbe 7ddf 82bc
00000090: e8ef dabd b6cb 36be a7a7 cbbc 65de f93b
000000a0: c519 863d 8873 82be 2c61 143e 264d 573e
000000b0: 8277 1a3e 2693 1ebe 31bb 44be 6e54 18be
000000c0: b24f 2b3b 508c 8dbd ed9c aa3d 13c0 343e
000000d0: c23b f53d 44bc e53d 4b28 1a3e d296 523e
000000e0: 7293 393e 925d 0cbd 7c17 b2bc 8562 a1bd
000000f0: c740 72be 220e 33be 9de3 c73b fe2c 9b3d
00000100: 7267 c83c ac3b 833d 3ccb 55bd fbd4 c9bd
00000110: 9e6b 893d 1382 a5bd 6b17 bf3c 0b7a a9bc
00000120: 33a3 4b3e 39c2 ee3d 08b1 7b3e de6c 5fbc
00000130: f9fd c3bd 5447 a13d f1e3 a1bc 7f5e 1bbe
00000140: f93f 8b3c 112c 8cbe 677a 043d 12fb 3f3e
00000150: 6474 8fbd 0b72 2abc ca2c 033b f494 4fbc
00000160: 78fd 403e 634c 7c3c a788 1cbe bcfc e8bc
00000170: dd40 2d3e ca73 15bd 36e7 973d 8721 ea3d
00000180: 2264 383c 06f5 4c3d f909 913e f83a 2c3e
00000190: 67de 7c3d de16 f13b 4dd7 ccbb c3a4 833d
000001a0: 6297 0dbc 4415 2c3d 7c3f 8d3c 5141 17be
000001b0: 9671 e5bd 00fc ed3d 0b70 213e b02f d3bc
000001c0: 3282 93bd 3e82 05be e173 6ebd a4d0 6b3d
000001d0: 18dc e83d 9657 9fbd bf05 df3a 0e09 933d
000001e0: a089 c13d 9460 01bd 3d24 f73d 455e 143e
000001f0: 0b6c 173e 838f 0c3e 60bd 1a3e c4ab 333e
00000200: baef 003d 58d7 343d a212 dbbc 8f15 a33c
00000210: 73d6 2ebe ed8e 49be 1cba 38be 51e0 1e3d
00000220: 9bb5 803d 8b8f fb3d c3d0 b2bd 7c97 9a3c
00000230: 210e 353c 2395 c9bc a387 afbd af34 ffbd
00000240: c958 1ebe c44d d23b 1cf8 02be a80d bf3d
00000250: c7c8 53bd a2a5 68bd 44e6 6fbd 2d12 8dbd
00000260: 0f64 a5bc 720f 00be 62c8 0bbe 26de 95bd
00000270: 75e1 e3bd 27ab 723d e83d c03d b6c4 3dbc
00000280: 01ba a13d 7258 89bb 62d7 a6bd 7101 273d
00000290: d1ee f23d 3629 86bd fe93 0d3e b84f ffbc
000002a0: 2825 e2bd 0cbf bebd e5b7 68be 57eb 963d
000002b0: fc15 2d3e 466b 0d3e 1d5e 7e3c 8111 ba3d
000002c0: 5ba7 2a3a 4d20 983b 6889 11be aec5 a8bd
000002d0: d5dc aebe 787d 52be ffcc 06bd 9c40 69be
000002e0: be9b 09be 3b49 1e3d 4263 4cbe 0543 51bc
000002f0: d9f5 2d3d f478 80be c3cc bdbd f0f6 a8bd
00000300: 5632 75be 0f5b 7cbe aacb 92bd 4d4a 47bd
00000310: cb82 d9bd 3639 c2bd 38e4 f7ba 6890 4c3d
00000320: 33e0 2bbd 2bb0 793d 3bb4 37bd 8c29 f43d
00000330: 2b35 363d 023b a23d 0ce9 6dbd dfbd 8cbc
00000340: a3f1 b0bb a81e f53c acef 093d defb 743d
00000350: 6165 5f3d e303 59bd 6d21 06be 1135 0f3d
00000360: 5a35 9abd 78a8 aeba 8037 9ebd 67bb 1bbc
00000370: 802f 1f3e b645 fe3d 533c df3c 89ed 343e
00000380: 7d88 083d ba81 79bb 9597 b63b 32d5 ae3c
00000390: df78 9dbc d41f 2d3b 6eda bb3d 4846 b23d
000003a0: d49c bfbd c2f6 e4bc 6f80 723d ede3 163e
000003b0: 0297 e43d 6471 133e 48b4 f43d b1f6 32bc
000003c0: b57b 0f3e 44f5 afbc 30b3 483c f5fb 45be
000003d0: facb be3d 6e39 163b 464e 0c3d afd1 f73d
000003e0: 8a0b 013e 29bf d13c 4bbc 143e fe64 553d
000003f0: 7036 943d a72d d7bd 4b07 693e 93fb 9cbd

bias f4 [16]
0.019963674 0.039517693 0.011249071 0.033779588 -0.22439179 0.08466473 0.14008006 0.057541315
0.042917613 0.0066742804 -0.045926593 0.07821659 0.077773884 0.16174215 -0.12869553 0.03570031
00000000: dc8a a33c 4edd 213d 064e 383c 775c 0a3d
00000010: f6c6 65be b464 ad3d 2671 0f3e 71b0 6b3d
00000020: 61ca 2f3d ecb3 da3b 861d 3cbd 0530 a03d
00000030: ea47 9f3d bc9f 253e c3c8 03be 7d3a 123d

weight f4 [16, 16, 3, 3]
-0.17352606 -0.0647342 0.10237828 -0.16851176 0.041069165 0.039202034 -0.08916411 0.15667589
0.23780292 0.013183194 -0.013738206 -0.086554244 0.06571924 -0.118341096 -0.09690737 0.060689375
0.058923427 0.05936386 -0.09174214 -0.051618002 -0.062661655 -0.1347454 -0.18203968 0.05402871
-0.13740495 -0.15790111 -0.030723905 -0.036642306 0.06430223 -0.01957692 -0.011924938 0.020528136
0.12113468 0.09568434 0.013222627 0.04787983 -0.05495553 -0.09864745 0.104010634 -0.18124354
-0.0983929 0.009645767 -0.04995457 -0.06360551 -0.006016021 0.08907617 0.14674684 0.059807606
0.04321118 0.10595488 0.009942243 -0.011191117 0.06396254 0.00817871 -0.06444342 -0.054469235
0.015323363 0.046924792 -0.006190774 -0.018332072 0.031277493 -0.02063549 -0.05568296 0.05047483
-0.09814485 -0.1403198 0.065661445 -0.13759698 -0.057333566 0.017239561 -0.063606694 -0.08958173
0.039813556 -0.25677314 -0.24340521 -0.045881044 -0.3768925 -0.110705175 0.013508982 -0.27101025
-0.092000596 0.034222484 -0.078524694 -0.007760435 -0.033377204 -0.09349204 -0.06001217 -0.013010144
-0.07426151 0.016687665 -0.23915406 -0.056038037 0.07504805 -0.25121143 -0.1065762 0.00857322
0.015885226 -0.054552186 0.06052467 -0.0032202923 0.02764268 0.043048825 0.0038840882 -0.03359143
0.038884588 0.023753626 0.019211449 -0.0040853424 -0.053822856 0.14409512 0.26449847 -0.20718406
0.017517855 0.2549692 -0.24164532 0.03939064 0.34109038 0.040732823 0.039413214 0.09991839
-0.018973894 -0.02495168 0.005892528 -0.066157624 0.044601902 0.021364605 -0.0016542596 0.09576714
-0.0848216 -0.02490772 0.07188625 -0.10175131 0.047458675 0.05206494 -0.05223142 -0.13977396
-0.22797802 -0.12135874 -0.019193145 -0.08998118 -0.020963527 -0.018392254 -0.03854554 0.0023386013
-0.0008658099 -0.05511479 -0.023544274 -0.12952305 -0.19967861 -0.13859417 -0.022545097 -0.12133962
-0.13865054 -0.18324219 0.017257016 0.12524179 -0.17928916 -0.06736761 0.12912668 -0.13925831
-0.12005269 0.14670315 0.028579237 0.078037806 -0.09613356 0.078391485 0.10944029 0.00997574
0.018286359 0.053152114 -0.077931896 -0.04317072 0.08914131 0.2161518 -0.22133438 -0.1307957
0.102142006 -0.26193392 -0.16786745 0.05907985 0.052442223 -0.062547565 -0.14252785 0.049537662
-0.0483562 -0.21107744 0.05827154 -0.0033125188 -0.114188954 0.0005400006 0.0016078926 -0.004427849
-0.12335038 -0.14757492 -0.08281267 -0.16867663 -0.033997335 -0.116373345 0.11734564 0.08997396
-0.07127818 0.15392701 0.029152112 0.07286562 0.14109051 0.096931964 -0.012706232 -0.04160242
0.06574079 0.19660255 -0.17374517 0.005717414 0.19565295 -0.05151903 -0.018761618 0.18299323
0.1446964 0.12632874 0.40767434 0.095251225 0.10405703 0.27977046 -0.036495987 0.008793054
0.23638143 0.082624815 0.06601571 0.1427017 -0.07340927 0.03419218 -0.009641926 0.06420741
-0.026256347 0.013423438 -0.0017894902 0.03682691 -0.012726951 -0.047289796 -0.014786376 0.02786907
0.04118595 -0.013901696 0.0068947724 0.03917562 0.06971505 0.011657898 0.029989513 0.06397369
-0.021223186 0.08475961 -0.026566608 -0.06515012 -0.16540086 -0.3173424 -0.41797453 -0.15031843
00000000: d1b0 31be 5d93 84bd b4ab d13d 598e 2cbe
00000010: 2438 283d 5092 203d ac9b b6bd a56f 203e
00000020: 9c82 733e 53fe 573c 3616 61bc 5a43 b1bd
00000030: cf97 863d d15c f2bd 5f77 c6bd 6c95 783d
00000040: b159 713d 8527 733d 4ee3 bbbd 666d 53bd
00000050: c154 80bd b3fa 09be 9c68 3abe 354d 5d3d
00000060: e2b3 0cbe d4b0 21be b3b0 fbbc 3e16 16bd
00000070: e3b0 833d c75f a0bc d160 43bc 9f2a a83c
00000080: 7615 f83d 27f6 c33d b8a3 583c a41d 443d
00000090: 0d19 61bd ad07 cabd 8703 d53d e897 39be
000000a0: 3782 c9bd 4709 1e3c 2a9d 4cbd 9b43 82bd
000000b0: 0b22 c5bb 916d b63d ce44 163e d2f8 743d
000000c0: 35fe 303d dffe d83d cae4 223c f25a 37bc
000000d0: cbfe 823d ffff 053c e9fa 83bd 221b 5fbd
000000e0: d80e 7b3c 3634 403d fadb cabb 242d 96bc
000000f0: d41c 003d c20b a9bc d113 64bd b2be 4e3d
00000100: 2b00 c9bd feaf 0fbe 8279 863d 39e6 0cbe
00000110: 9ad6 6abd fb39 8d3c 3a44 82bd a076 b7bd
00000120: 8a13 233d c577 83be 373f 79be c3ed 3bbd
00000130: 0ef8 c0be 65b9 e2bd c754 5d3c dbc1 8abe
00000140: cf6a bcbd e02c 0c3d 8ed1 a0bd 3f4b febb
00000150: 89b6 08bd c178 bfbd 52cf 75bd 8028 55bc
00000160: 6b16 98bd 92b4 883c cde4 74be 2488 65bd
00000170: cbb2 993d c99e 80be 9f44 dabd b176 0c3c
00000180: bc21 823c 1d72 5fbd b7e8 773d 8a0b 53bb
00000190: e772 e23c f753 303d 308c 7e3b 2b97 09bd
000001a0: 7245 1f3d f796 c23c 5461 9d3c 56de 85bb
000001b0: 5b75 5cbd ac8d 133e 586c 873e 0f28 54be
000001c0: 9b81 8f3c 538b 823e df71 77be 1458 213d
000001d0: 66a3 ae3e 76d7 263d c06f 213d 03a2 cc3d
000001e0: 246f 9bbc 7767 ccbc 1c16 c13b a67d 87bd
000001f0: 7cb0 363d d304 af3c bed3 d8ba 9021 c43d
00000200: f2b6 adbd 460b ccbc 1939 933d fe62 d0bd
00000210: 0764 423d 0c42 553d 9df0 55bd e820 0fbe
00000220: 1273 69be ee8a f8bd f13a 9dbc 0e48 b8bd
00000230: b4bb abbc 5aab 96bc eee1 1dbd 3843 193b
00000240: 85f7 62ba 0cc0 61bd ecdf c0bc b1a1 04be
00000250: 8d78 4cbe a1eb 0dbe 7fb0 b8bc e880 f8bd
00000260: 68fa 0dbe d7a3 3bbe 965e 8d3c 623f 003e
00000270: 9497 37be 08f8 89bd c939 043e bb99 0ebe
00000280: 2fde f5bd 5a39 163e 011f ea3c 49d2 9f3d
00000290: ace1 c4bd b78b a03d 3b22 e03d 4971 233c
000002a0: 46cd 953c 08b6 593d c29a 9fbd c8d3 30bd
000002b0: b88f b63d e656 5d3e 7ba5 62be 4fef 05be
000002c0: d42f d13d 341c 86be 72e5 2bbe b6fd 713d
000002d0: a8cd 563d f018 80bd d2f2 11be 01e8 4a3d
000002e0: 2711 46bd af24 58be 23ae 6e3d d816 59bb
000002f0: e6db e9bd d48e 0d3a ecbf d23a 7d17 91bb
00000300: 209f fcbd e11d 17be b099 a9bd 91b9 2cbe
00000310: ca40 0bbd 2655 eebd e952 f03d 4444 b83d
00000320: 4bfa 91bd 0b9f 1d3e 69d0 ee3c 923a 953d
00000330: 087a 103e 4484 c63d cd2d 50bc 4d67 2abd
00000340: 1ba3 863d 2e52 493e 41ea 31be 2559 bb3b
00000350: 3f59 483e 9e05 53bd f7b1 99bc 9462 3b3e
00000360: 4b2b 143e 525c 013e b1ba d03e 1313 c33d
00000370: da1b d53d 133e 8f3e d17c 15bd be10 103c
00000380: f90d 723e 3337 a93d 3f33 873d 6520 123e
00000390: 9957 96bd 190d 0c3d 2bf9 1dbc 2d7f 833d
000003a0: 8d17 d7bc fbed 5b3c 548d eaba d0d7 163d
000003b0: b484 50bc f2b2 41bd 8e42 72bc ad4d e43c
000003c0: 99b2 283d f0c3 63bc 8bed e13b 9d76 203d
000003d0: c4c6 8e3d c500 3f3c 91ac f53c a304 833d
000003e0: 3fdc adbc 7296 ad3d 37a2 d9bc 6d6d 85bd
000003f0: d85e 29be b47a a2be c200 d6be 13ed 19be

bias f4 [16]
-0.026288707 0.03478408 0.034393147 0.05274711 0.1759719 0.09655175 -0.06609776 0.08931424
0.08423341 -0.05103786 -0.03767649 -0.05701886 0.14006917 0.022911206 0.14450617 -0.05787167
00000000: 6a5b d7bc c079 0e3d d4df 0c3d 5b0d 583d
00000010: fa31 343e edbc c53d 435e 87bd 62ea b63d
00000020: 9182 ac3d 130d 51bd aa52 1abd 9c8c 69bd
00000030: 4b6e 0f3e 48b0 bb3c 6df9 133e d80a 6dbd

weight f4 [24, 16, 3, 3]
-0.11410789 0.002528288 -0.0034509618 -0.06175731 0.025026917 0.014207025 -0.050123785 -0.015358472
-0.021050097 0.13164093 0.04338018 -0.06707139 0.052586436 -0.041518312 -0.13763842 -0.021724576
-0.14648274 -0.25469238 0.08144667 -0.13955607 -0.010472459 -0.0036215081 -0.017762398 -0.099897645
-0.11017363 0.036849383 0.08035321 0.037483614 -0.047558278 -0.04457216 -0.044604927 -0.15345347
-0.11239512 0.13176472 0.095633484 0.004302758 0.23988664 0.13851002 0.09029742 0.05798556
-0.052664902 -0.23936044 -0.13073663 -0.24793564 -0.24927498 0.06411649 -0.08392886 -0.18703122
-0.050436243 -0.10588459 -0.031865362 0.10977902 0.1516649 0.07194752 -0.19643925 -0.25189078
-0.12366369 -0.05509082 0.04234055 -0.03154532 0.18654457 0.114901595 0.17244531 0.12181015
0.10581469 0.091335684 -0.011588291 -0.058677614 -0.124751896 -0.090223595 -0.03248206 0.006582971
0.2628427 0.13381493 -0.114470944 -0.018049236 -0.10648026 -0.18596278 0.042742584 0.093174934
-0.015572905 0.11708983 0.057031523 0.19453391 -0.020475615 -0.044748925 0.0935541 -0.073924586
-0.07262259 -0.07168305 -0.011022436 -0.014707836 -0.099300124 0.046408437 0.027736962 -0.002727355
0.2426267 0.21269512 0.14030549 -0.06053009 0.045428004 0.08684876 -0.06127119 0.10635516
0.0018931691 -0.086667076 -0.050975326 -0.1268566 0.0040232786 -0.05041265 -0.2063121 0.10393055
-0.23240907 -0.13191003 0.078797236 0.0011739985 0.068320274 -0.0131747 0.11801842 0.15009353
0.050798368 0.042647127 -0.01560786 -0.05192311 0.10024784 0.10380043 0.23204078 0.24729604
-0.004818705 0.068567835 -0.15001684 -0.273972 -0.024795651 -0.28789428 -0.10145419 0.053202163
0.09074209 0.032459453 -0.16117264 -0.057032187 0.006996616 -0.041618202 -0.10408924 -0.08298183
-0.08024482 0.025937757 0.06730914 -0.012019966 -0.044811774 -0.021613078 0.016862687 -0.07093552
-0.051141404 -0.013695931 0.15411367 0.15321833 -0.14135633 -0.004618709 0.20229599 -0.0308032
-0.2586434 -0.05525548 -0.08052983 0.032141477 0.026442785 -0.15782413 -0.028555771 0.010478947
0.14823842 0.031562354 -0.034534954 0.1893703 0.16099702 0.1746793 -0.0031553905 0.0020478128
-0.0003853673 -0.20988134 -0.22006145 -0.11756671 -0.11231657 0.03230393 -0.126443 0.06761235
0.018705416 0.12672928 -0.08218582 -0.07948791 -0.005541948 0.14702871 0.16277468 0.21641238
-0.051167343 -0.020884467 0.11682649 -0.16052961 -0.22933112 -0.21869159 0.09100041 0.07264729
0.19970219 -0.019390764 -0.01324287 0.0031961843 -0.06659419 -0.06622312 -0.10818292 0.04826849
0.128374 0.071852535 0.028800968 0.12297766 0.20068912 -0.20936455 -0.1403889 -0.12502125
0.07686307 0.023880186 0.048056763 -0.0950879 -0.099440165 -0.058837567 -0.19394994 -0.22288565
-0.31722572 -0.18841209 -0.042726588 -0.20157465 0.023571368 -0.047294535 0.011601571 0.11251364
0.06868507 -0.01877289 0.09993855 0.059249293 0.16268912 0.03707489 -0.05205963 -0.040964518
-0.054054037 -0.116702594 -0.055352665 -0.12588133 -0.095690526 -0.19086654 0.03300668 0.13679662
-0.04874509 0.15182167 0.04789571 0.1229946 0.06218108 0.010510171 0.05509192 0.03009541
00000000: 66b1 e9bd a2b1 253b 8829 62bb 3cf5 7cbd
00000010: 4005 cd3c 95c4 683c 994e 4dbd 1aa2 7bbc
00000020: 4171 acbc e1cc 063e 6aaf 313d ba5c 89bd
00000030: e064 573d 1b0f 2abd 16f1 0cbe bdf7 b1bc
00000040: 92ff 15be 0a67 82be 83cd a63d c9e7 0ebe
00000050: ad94 2bbc d356 6dbb 7382 91bc 2397 ccbd
00000060: b6a2 e1bd 61ef 163d 3990 a43d 6b88 193d
00000070: 78cc 42bd 4c91 36bd a8b3 36bd e822 1dbe
00000080: 6a2f e6bd 55ed 063e 7ddb c33d 26fe 8c3b
00000090: d8a4 753e 92d5 0d3e dbed b83d 4482 6d3d
000000a0: 27b7 57bd e71a 75be d3df 05be d7e2 7dbe
000000b0: f141 7fbe 824f 833d e5e2 abbd 1d85 3fbe
000000c0: 3c96 4ebd 05da d8bd 4185 02bd d3d3 e03d
000000d0: 0b4e 1b3e 3959 933d 5f27 49be d4f7 80be
000000e0: 6443 fdbd e9a6 61bd 496d 2d3d aa35 01bd
000000f0: 8a05 3f3e 8751 eb3d 8195 303e 9a77 f93d
00000100: 5fb5 d83d 340e bb3d d1dc 3dbc f057 70bd
00000110: ec7d ffbd 26c7 b8bd e90b 05bd f7b5 d73b
00000120: 5293 863e c806 093e be6f eabd fedb 93bc
00000130: 5312 dabd 076d 3ebe d912 2f3d 80d2 be3d
00000140: 7f25 7fbc cbcc ef3d e399 693d e633 473e
00000150: 7abc a7bc a64a 37bd 4b99 bf3d c665 97bd
00000160: 27bb 94bd 90ce 92bd 7397 34bc 23f9 70bc
00000170: dd5d cbbd c616 3e3d a038 e33c 6dbd 32bb
00000180: 2273 783e c0cc 593e 3eac 0f3e 66ee 77bd
00000190: b712 3a3d c3dd b13d 80f7 7abd bcd0 d93d
000001a0: 3724 f83a 827e b1bd 81cb 50bd b2e6 01be
000001b0: b5d5 833b 7f7d 4ebd 7b43 53be 8ad9 d43d
000001c0: a5fc 6dbe 6c13 07be 7260 a13d dae0 993a
000001d0: 80eb 8b3d b2da 57bc a4b3 f13d 1eb2 193e
000001e0: f311 503d c1ae 2e3d 1cb8 7fbc 54ad 54bd
000001f0: bd4e cd3d 5295 d43d 199c 6d3e 2c3b 7d3e
00000200: 3ae6 9dbb 4b6d 8c3d 049e 19be 0f46 8cbe
00000210: 4020 cbbc e166 93be 37c7 cfbd 83ea 593d
00000220: fdd6 b93d 34f4 043d 710a 25be 959a 69bd
00000230: de43 e53b d977 2abd bd2c d5bd 61f2 a9bd
00000240: 6557 a4bd 6b7b d43c 60d9 893d 64ef 44bc
00000250: 8d8c 37bd e90d b1bc 9e23 8a3c a446 91bd
00000260: a679 51bd e664 60bc f9cf 1d3e 44e5 1c3e
00000270: b7bf 10be 8a58 97bb ae26 4f3e fe56 fcbc
00000280: e86c 84be 9253 62bd d3ec a4bd c8a6 033d
00000290: 8a9e d83c a69c 21be cbed e9bc e4af 2b3c
000002a0: d0cb 173e 8747 013d 8674 0dbd 4aea 413e
000002b0: 67dc 243e 21df 323e abca 4ebb 9934 063b
000002c0: 200b cab9 22eb 56be ca57 61be d1c6 f0bd
000002d0: 3b06 e6bd 2051 043d 467a 01be 5878 8a3d
000002e0: 1a3c 993c 52c5 013e 0a51 a8bd 8fca a2bd
000002f0: 3b99 b5bb b28e 163e 68ae 263e 359b 5d3e
00000300: d994 51bd e715 abbc ba42 ef3d e061 24be
00000310: c7d5 6abe b0f0 5fbe 6c5e ba3d 1ac8 943d
00000320: bb7e 4c3e 61d9 9ebc 9ff8 58bc 1377 513b
00000330: 8962 88bd fd9f 87bd 028f ddbd 2eb5 453d
00000340: 7974 033e 6c27 933d 02f0 eb3c b6db fb3d
00000350: 7381 4d3e a963 56be 1cc2 0fbe 9205 00be
00000360: 636a 9d3d 61a0 c33c 2bd7 443d 72bd c2bd
00000370: 49a7 cbbd a9ff 70bd d09a 46be 233c 64be
00000380: 696b a2be 19ef 40be 1302 2fbd 9669 4ebe
00000390: be18 c13c eab7 41bd 8414 3e3c 8d6d e63d
000003a0: c2aa 8c3d 9bc9 99bc 95ac cc3d 63af 723d
000003b0: fa97 263e d7db 173d 7b3c 55bd 69ca 27bd
000003c0: c467 5dbd c501 efbd 7ab9 62bd 09e7 00be
000003d0: 65f9 c3bd 8572 43be 0332 073d 6a14 0c3e
000003e0: eea8 47bd 2477 1b3e 4b2e 443d 98e4 fb3d
000003f0: 97b1 7e3d da32 2c3c 11a8 613d a68a f63c

bias f4 [24]
0.016797692 0.03795701 -0.035802774 0.014777358 0.02362827 -0.008620741 -0.15324049 0.029502777
-0.062392928 -0.048761334 0.065507755 0.08357641 -0.017497191 -0.044999946 0.008465914 -0.10763319
-0.00883364 -0.1730797 0.06434421 -0.025390733 -0.058506873 -0.067442514 0.0071720304 -0.0014824665
00000000: 509b 893c cf78 1b3d eea5 12bd bb1c 723c
00000010: 1390 c13c 023e 0dbc 13eb 1cbe cfaf f13c
00000020: ba8f 7fbd f7b9 47bd ee28 863d 1c2a ab3d
00000030: 4556 8fbc dd51 38bd 9eb4 0a3c ca6e dcbd
00000040: f9ba 10bc ce3b 31be e6c6 833d 3a00 d0bc
00000050: e7a4 6fbd 4d1f 8abd 5a03 eb3b 524f c2ba

weight f4 [24, 24, 3, 3]
-0.032134183 -0.034679625 -0.08013688 0.08315263 0.01565579 -0.13341951 0.1581332 -0.029090771
-0.17414032 0.04319605 0.06904382 0.16477786 0.0789213 -0.019189993 -0.09805748 -0.26088482
-0.23908727 -0.13690864 0.02228648 0.06727776 -0.07713434 0.10189945 -0.0064936276 -0.26376992
-0.21885966 -0.27389356 -0.07952801 0.051829945 0.09036097 -0.081092045 0.16968179 0.03235756
-0.091085516 -0.16393718 -0.22490622 0.0034868058 -0.11607566 -0.07271459 -0.12370292 0.105747625
0.17832732 0.04044506 0.08114841 -0.08805713 -0.008058066 -0.05501071 -0.014286592 0.028754199
0.02382126 -0.094805636 -0.022449145 -0.064401925 -0.05683961 -0.018853841 -0.034640506 0.069338165
0.034654915 0.09791886 0.14843453 0.034501813 -0.066058815 0.041531555 0.08677646 0.19287811
0.0789117 -0.060801018 0.05911324 -0.19409417 -0.29862288 -0.29852396 -0.2006772 -0.17869966
-0.014281914 -0.04031464 -0.055380322 0.068090804 0.004382545 0.028045172 0.023791492 -0.044980418
-0.078203775 -0.049765285 -0.08687318 0.015452068 -0.049731016 -0.02957414 -0.05389508 -0.15807675
-0.11957527 -0.12984833 -0.10403448 -0.047717463 -0.03816151 -0.12153292 -0.009332013 0.029288234
-0.12101192 -0.07445656 -0.07870148 -0.024358058 -0.114443876 -0.1231932 0.060390003 0.06478264
-0.06891076 0.18786599 0.07556588 -0.09508803 -0.26479182 -0.14124863 -0.2127167 0.019144503
0.0458523 -0.060544927 -0.25933832 -0.023722371 -0.14838366 0.1934512 0.052245267 0.11604012
-0.01366228 0.0041959216 0.12418442 -0.07279395 0.06493263 0.04890515 -0.015558894 0.013290943
0.02560378 -0.12752058 -0.054585867 0.042998135 -0.10547386 -0.18991193 0.06860385 0.031893056
0.036850058 0.062219325 -0.04870138 -0.099972464 -0.0877929 0.08672858 0.088691734 0.07231043
0.11437262 0.10965478 0.15538244 -0.03220989 -0.041228432 -0.0005661256 -0.112150304 0.0033213436
-0.046044953 -0.044030137 0.011009309 -0.0049704243 -0.0810685 0.0052531515 -0.0073129353 -0.05647992
-0.015968224 0.0690546 0.2871473 0.061514888 -0.08550707 0.1166174 0.05711746 0.009967041
-0.05688311 0.07060893 0.0073313075 0.10234015 -0.012233656 -0.0013101653 0.01617163 -0.03170448
-0.09702585 -0.017459495 -0.055402648 -0.113172285 0.031328734 0.07246011 0.15490316 0.045757283
-0.022580143 -0.06409199 -0.04160026 -0.18281041 -0.091002025 0.020745648 -0.050164174 0.027335916
0.21554944 0.08080832 -0.09282109 -0.102441974 -0.040880714 -0.032993183 -0.09957452 -0.065532066
0.100218505 0.03860893 -0.06277606 -0.0023965344 -0.00994914 -0.051771387 0.10676242 -0.037678923
-0.10370515 -0.024711376 -0.08619216 -0.016971858 -0.017252984 0.071384445 0.011083137 0.02529872
0.14573088 0.130591 -0.088159576 -0.2069636 -0.20567766 -0.18204325 -0.23263055 -0.28401902
-0.14602369 -0.34965378 -0.24596922 -0.06477674 -0.12791938 -0.06472098 -0.11404576 0.112359494
0.10965995 0.08466878 0.014888609 0.0046444926 -0.056682453 0.011279211 -0.07408474 -0.030968923
0.044269767 -0.045541823 0.037493736 -0.12060927 -0.09727884 -0.073486514 -0.09039067 -0.20240755
-0.1423732 0.044809915 0.11050277 0.16450222 0.21988393 0.14373851 -0.09729953 0.15963858
00000000: 229f 03bd 390c 0ebd ce1e a4bd ed4b aa3d
00000010: 9240 803c 209f 08be abed 213e c54f eebc
00000020: d751 32be 57ee 303d d966 8d3d 87bb 283e
00000030: 7ea1 a13d 5534 9dbc 5cd2 c8bd b292 85be
00000040: 4bd3 74be c731 0cbe 2392 b63c ecc8 893d
00000050: 9cf8 9dbd a9b0 d03d 7fc8 d4bb da0c 87be
00000060: bf1c 60be c73b 8cbe 95df a2bd a34b 543d
00000070: 2c0f b93d 9613 a6bd 10c1 2d3e 5c89 043d
00000080: 0b8b babd 26df 27be d14d 66be e582 643b
00000090: 13b9 edbd 63eb 94bd f557 fdbd 3692 d83d
000000a0: 709b 363e b8a9 253d 2331 a63d 4c57 b4bd
000000b0: fa05 04bc e952 61bd 4f12 6abc ed8d eb3c
000000c0: ce24 c33c 7529 c2bd 45e7 b7bc 28e5 83bd
000000d0: a7d0 68bd 5f73 9abc 34e3 0dbd 2b01 8e3d
000000e0: 50f2 0d3d af89 c83d 39ff 173e c651 0d3d
000000f0: d849 87bd fe1c 2a3d dbb7 b13d d781 453e
00000100: 759c a13d 7d0a 79bd ba20 723d 9fc0 46be
00000110: 19e5 98be 22d8 98be 537e 4dbe 0bfd 36be
00000120: b0fe 69bc f720 25bd 7ad6 62bd 3173 8b3d
00000130: 749b 8f3b fdbe e53c 60e6 c23c 633d 38bd
00000140: 4d29 a0bd afd6 4bbd 91ea b1bd ac2a 7d3c
00000150: c0b2 4bbd 7845 f2bc 16c1 5cbd dfde 21be
00000160: e1e3 f4bd f6f6 04be 0810 d5bd 6373 43bd
00000170: 3e4f 1cbd 40e6 f8bd 4de5 18bc e1ed ef3c
00000180: 19d5 f7bd ae7c 98bd 3e2e a1bd 8d8a c7bc
00000190: 8d61 eabd b74c fcbd 825b 773d c3ac 843d
000001a0: 1621 8dbd f15f 403e 49c2 9a3d 83bd c2bd
000001b0: cb92 87be 7ba3 10be 68d2 59be efd4 9c3c
000001c0: 9fcf 3b3d f5fd 77bd fec7 84be 6b55 c2bc
000001d0: e3f1 17be 1218 463e 22ff 553d 71a6 ed3d
000001e0: c1d7 5fbc f17d 893b 6754 fe3d ff14 95bd
000001f0: 66fb 843d c450 483d bbea 7ebc 41c2 593c
00000200: 05bf d13c c194 02be 6e95 5fbd d01e 303d
00000210: ae02 d8bd 4678 42be 2d80 8c3d 4ba2 023d
00000220: 16f0 163d b1d9 7e3d 197b 47bd 5dbe ccbd
00000230: c4cc b3bd c19e b13d 03a4 b53d 7e17 943d
00000240: 313c ea3d af92 e03d 931c 1f3e 85ee 03bd
00000250: 25df 28bd 0c68 14ba 0faf e5bd e6aa 593b
00000260: a299 3cbd f258 34bd 6460 343c f1de a2bb
00000270: 3e07 a6bd a122 ac3b 59a1 efbb 7d57 67bd
00000280: cbcf 82bc 806c 8d3d f904 933e 09f7 7b3d
00000290: 551e afbd 1ad5 ee3d fff3 693d cd4c 233c
000002a0: 44fe 68bd 6a9b 903d 773b f03b b697 d13d
000002b0: ac6f 48bc dab9 abba 5e7a 843c 8fdc 01bd
000002c0: 7db5 c6bd 3707 8fbc e3ed 62bd dfc6 e7bd
000002d0: 8f52 003d f765 943d ef9e 1e3e fd6b 3b3d
000002e0: fef9 b8bc a942 83bd 0965 2abd a732 3bbe
000002f0: 455f babd c7f2 a93c f378 4dbd 92ef df3c
00000300: feb8 5c3e d57e a53d fc18 bebd 19cd d1bd
00000310: 8972 27bd dc23 07bd baed cbbd ad35 86bd
00000320: 5c3f cd3d 6624 1e3d bc90 80bd 2d0f 1dbb
00000330: b801 23bc 3c0e 54bd 41a6 da3d 3755 1abd
00000340: 5e63 d4bd 836f cabc 8485 b0bd 9108 8bbc
00000350: 2156 8dbc 0232 923d 0c96 353c 433f cf3c
00000360: 7a3a 153e a6b9 053e 028d b4bd 44ee 53be
00000370: 2a9d 52be 8c69 3abe b436 6ebe f16a 91be
00000380: 3c87 15be d205 b3be 5bdf 7bbe aba9 84bd
00000390: 4cfd 02be 6f8c 84bd d390 e9bd bc1c e63d
000003a0: 6595 e03d d366 ad3d 5aef 733c d430 983b
000003b0: dc2b 68bd 71cc 383c bdb9 97bd 8ab2 fdbc
000003c0: 3754 353d 108a 3abd 0893 193d fe01 f7bd
000003d0: 213a c7bd 1980 96bd be1e b9bd ed43 4fbe
000003e0: 48ca 11be 9a8a 373d 474f e23d 4573 283e
000003f0: 4129 613e 3030 133e fa44 c7bd 4c78 233e

bias f4 [24]
-0.050722178 -0.07504675 -0.02414337 0.033896185 0.03104733 -0.097401686 -0.0533721 0.09534282
-0.1340378 -0.075201906 0.029843763 0.019938983 0.025716659 0.011151186 0.09659774 -0.031974766
0.13115613 0.12008551 0.03704813 -0.027010428 -0.04827399 0.1555991 0.001543035 0.035051655
00000000: 0fc2 4fbd 1cb2 99bd 51c8 c5bc bad6 0a3d
00000010: f856 fe3c 897a c7bd b49c 5abd 1943 c33d
00000020: 3441 09be 7503 9abd e87a f43c 1457 a33c
00000030: beab d23c 77b3 363c 09d5 c53d f9f7 02bd
00000040: cb4d 063e 64ef f53d c8bf 173d f944 ddbc
00000050: f3ba 45bd 5f55 1f3e aa3f ca3a 5392 0f3d

weight f4 [40, 24, 3, 3]
-0.22118545 -0.13132057 -0.16604595 -0.08978952 -0.20925371 -0.22689961 -0.1632461 0.005846617
0.031935766 0.19628407 0.27857643 -0.054359633 0.18809493 0.040078368 0.046516914 -0.116417415
-0.18558976 -0.14924301 0.05812066 0.1346473 -0.21695712 -0.007360409 -0.034384433 0.0384468
-0.040150918 0.08634556 0.070043586 0.03588641 -0.040913954 0.09906564 -0.039289854 -0.04188804
0.034787502 0.086914785 0.028306922 -0.06728523 0.00035526123 0.15279984 0.1795936 0.19967264
-0.06915985 -0.03965799 -0.21004762 -0.18983237 -0.17508028 0.006239243 0.18470302 -0.09491477
0.09931505 -0.20631835 -0.16298796 0.12379999 -0.056700204 0.024917403 -0.06643884 -0.055489253
-0.06072465 0.042208534 -0.022820842 -0.07603224 0.15811223 0.0926293 -0.105908684 0.034924563
0.2112203 0.13359384 -0.0036418012 0.061176524 -0.05633963 -0.033008736 -0.067725725 0.11216465
-0.1898963 -0.04234034 -0.01264825 0.15107515 -0.20382266 0.08777266 0.0016948093 0.09455111
0.042130213 -0.044672683 -0.26985082 -0.08444337 -0.12168881 0.0061182114 0.029032024 -0.029490009
-0.1581642 0.13949083 0.2291008 0.07344127 -0.05347463 -0.03828842 -0.1268754 -0.13277146
-0.073723875 -0.060126893 -0.06650843 -0.111777335 0.03374063 0.0050042486 0.04329888 0.12994215
0.08731503 0.08513733 0.03356337 -0.04584288 0.09062284 0.08687035 0.0787749 -0.030610457
-0.019339468 -0.21898387 0.042187773 0.02177785 -0.053896807 -0.020248415 0.15087646 -0.11485164
0.04191867 0.17544281 -0.31120932 -0.113846734 -0.068419695 -0.19042383 -0.025535563 -0.056116857
0.030993596 0.05340474 0.16881762 0.20560043 0.07310054 0.0060982504 0.115911834 0.12954836
0.05511703 0.06202025 -0.06997673 -0.083157994 -0.014602454 -0.15342003 -0.28420976 -0.10642709
0.034712613 0.13061161 0.15752351 -0.08092401 -0.03421043 0.017526591 -0.117495865 -0.021857519
0.07486481 -0.03466968 0.01540027 0.13083373 -0.015534392 0.038984444 0.09912346 -0.090540074
-0.08035277 -0.038582444 -0.044359874 0.10559525 0.16220914 0.037301004 0.061817802 0.01941626
0.016040273 -0.004168417 -0.046024907 0.08200358 0.122744486 0.017928416 0.20096007 -0.047004644
-0.18694697 -0.23967771 -0.05205664 -0.034039002 0.10108314 -0.036654364 -0.11755152 0.06399671
0.04206539 -0.1348653 -0.016613636 0.08180534 -0.017545968 -0.12350652 -0.039638802 -0.03454699
-0.21280254 -0.0039794142 0.016784057 0.067575015 0.06643879 -0.05874118 0.046293408 -0.089836136
0.0034698015 -0.07850498 0.011383238 0.025198301 -0.2547796 -0.26820394 0.12634231 -0.3121724
-0.08307695 -0.08412865 -0.041700713 -0.10413953 -0.024592819 0.09898925 0.16944927 0.092123464
0.06313006 0.0518554 0.004729227 0.08726039 -0.024543982 0.044878803 0.08176228 0.0013367917
0.06579372 0.15447693 -0.0031507562 0.06634113 0.10193412 -0.018051744 0.099084005 -0.05872375
-0.031354256 -0.15195943 -0.13781449 0.009926763 0.04010293 -0.059968654 0.07508363 0.009529476
-0.022905055 -0.004020594 0.030365366 0.03922198 0.09908715 -0.15963338 0.07137673 -0.038884986
-0.20113137 0.044476546 0.05788891 -0.092136644 -0.026196191 0.08941759 0.047813095 0.23322873
00000000: 707e 62be e678 06be f307 2abe 91e3 b7bd
00000010: 9b46 56be 5f58 68be fc29 27be fa94 bf3b
00000020: 14cf 023d b1fe 483e 92a1 8e3e 35a8 5ebd
00000030: f59b 403e 3729 243d 8588 3e3d 416c eebd
00000040: 3e0b 3ebe 29d3 18be ee0f 6e3d fbe0 093e
00000050: 022a 5ebe 962f f1bb b1d6 0cbd 647a 1d3d
00000060: 4a75 24bd f1d5 b03d 0373 8f3d a1fd 123d
00000070: 6495 27bd ede2 ca3d 66ee 20bd cb92 2bbd
00000080: 577d 0e3d 6100 b23d ebe3 e73c d7cc 89bd
00000090: 5b42 ba39 9077 1c3e 62e7 373e fc76 4c3e
000000a0: aea3 8dbd 6b70 22bd b916 57be 6b63 42be
000000b0: 3f48 33be 9072 cc3b ca22 3d3e ad62 c2bd
000000c0: b065 cb3d 1e45 53be 51e6 26be d98a fd3d
000000d0: 793e 68bd 951f cc3c 1611 88bd b348 63bd
000000e0: 69ba 78bd dbe2 2c3d c6f2 babc cbb6 9bbd
000000f0: 2ce8 213e 6eb4 bd3d a7e6 d8bd 0f0d 0f3d
00000100: 224a 583e d3cc 083e 49ab 6ebb 3c94 7a3d
00000110: 62c4 66bd 2b34 07bd c9b3 8abd 94b6 e53d
00000120: 2d74 42be 106d 2dbd 9b3a 4fbc 72b3 1a3e
00000130: e3b6 50be 27c2 b33d 5d24 de3a 03a4 c13d
00000140: bb90 2c3d b4fa 36bd e329 8abe a5f0 acbd
00000150: fc37 f9bd 477b c83b 91d4 ed3c 0895 f1bc
00000160: ccf5 21be afd6 0e3e 6699 6a3e 6068 963d
00000170: 3708 5bbd 51d4 1cbd a0eb 01be 3ef5 07be
00000180: 8bfc 96bd 9e47 76bd 9235 88bd 84eb e4bd
00000190: 9d33 0a3d aefa a33b 2b5a 313d 8e0f 053e
000001a0: 39d2 b23d 7b5c ae3d bf79 093d bec5 3bbd
000001b0: 7898 b93d 15e9 b13d bc54 a13d c8c2 fabc
000001c0: ce6d 9ebc 4f3d 60be 16cd 2c3d 7667 b23c
000001d0: e6c2 5cbd 01e0 a5bc 5c7f 1a3e 5637 ebbd
000001e0: e9b2 2b3d 48a7 333e d456 9fbe 7a28 e9bd
000001f0: a01f 8cbd 77fe 42be f52f d1bc cada 65bd
00000200: 48e6 fd3c eebe 5a3d 87de 2c3e eb88 523e
00000210: bcb5 953d d5d3 c73b 2f63 ed3d 53a8 043e
00000220: 65c2 613d f208 7e3d f64f 8fbd bd4e aabd
00000230: 223f 6fbc 241a 1dbe f183 91be 72f6 d9bd
00000240: d02e 0e3d 0dbf 053e d84d 213e 7dbb a5bd
00000250: 3c20 0cbd ed93 8f3c aca1 f0bd 8a0e b3bc
00000260: b952 993d cb01 0ebd 6a51 7c3c 47f9 053e
00000270: f683 7ebc 27ae 1f3d 3e01 cb3d 136d b9bd
00000280: fe8f a4bd a008 1ebd b3b2 35bd 5342 d83d
00000290: 271a 263e f0c8 183d aa34 7d3d d90e 9f3c
000002a0: e466 833c 3797 88bb 9d84 3cbd 7ef1 a73d
000002b0: 7661 fb3d 9dde 923c 7ac8 4d3e f187 40bd
000002c0: 076f 3fbe 136e 75be 5839 55bd 7b6c 0bbd
000002d0: ad04 cf3d e322 16bd dabe f0bd b510 833d
000002e0: c24c 2c3d 211a 0abe 5219 88bc 8f89 a73d
000002f0: 90bc 8fbc fdf0 fcbd 4c5c 22bd 2581 0dbd
00000300: e9e8 59be bf65 82bb b87e 893c c564 8a3d
00000310: 0f11 883d 979a 70bd 289e 3d3d 02fc b7bd
00000320: 9c65 633b 38c7 a0bd c380 3a3c ab6c ce3c
00000330: 7972 82be 0752 89be e15f 013e 10d5 9fbe
00000340: 3f24 aabd a44b acbd 5ece 2abd 1b47 d5bd
00000350: e176 c9bc e0ba ca3d 1c84 2d3e 3aab bc3d
00000360: 554a 813d 5466 543d a2f7 9a3b 93b5 b23d
00000370: 7610 c9bc d6d2 373d fb72 a73d 4937 af3a
00000380: dcbe 863d 332f 1e3e eb7c 4ebb dcdd 873d
00000390: d6c2 d03d 40e1 93bc 8eec ca3d 5188 70bd
000003a0: 526d 00bd 419b 1bbe 3e1f 0dbe dda3 223c
000003b0: f842 243d b1a1 75bd 72c5 993d 8521 1c3c
000003c0: 62a3 bbbc 30bf 83bb cac0 f83c 3aa7 203d
000003d0: 34ee ca3d ef76 23be f72d 923d dd45 1fbd
000003e0: 62f5 4dbe 0a2d 363d ec1c 6d3d 23b2 bcbd
000003f0: 6599 d6bc 9220 b73d aad7 433d 83d3 6e3e

bias f4 [40]
-0.0742443 0.030671343 -0.06234629 0.04160831 0.0049066106 0.0100232065 -0.024610272 -0.03873297
-0.07419051 0.06717235 -0.0040576425 0.0026094466 -0.064600945 -0.09657812 -0.10827111 0.011030976
0.036316033 -0.013455833 -0.09709683 0.1269468 -0.0136544155 0.0022911876 0.021299351 -0.010165726
0.059883382 -0.056459915 -0.00022140492 0.050452713 0.013435558 -0.09996799 0.10315113 0.020987125
-0.049302913 -0.10450761 0.009664287 -0.14336312 0.11923869 -0.08495188 -0.1603285 -0.13016932
00000000: 650d 98bd 7842 fb3c d35e 7fbd 7a6d 2a3d
00000010: a2c7 a03b 6038 243c 7b9b c9bc 76a6 1ebd
00000020: 32f1 97bd a891 893d f9f5 84bb 4003 2b3b
00000030: 804d 84bd c0ca c5bd 3ebd ddbd 44bb 343c
00000040: 1fc0 143d db75 5cbc b4da c6bd 58fe 013e
00000050: c5b6 5fbc c027 163b fa7b ae3c 258e 26bc
00000060: 4748 753d 8342 67bd ee28 68b9 81a7 4e3d
00000070: d120 5c3c 04bc ccbd e640 d33d 31ed ab3c
00000080: daf1 49bd 1608 d6bd f556 1e3c c8cd 12be
00000090: 6a33 f43d 40fb adbd 282d 24be 1b4b 05be

weight f4 [80, 40, 3, 3]
0.072133794 0.03452439 -0.03675474 -0.09085758 -0.14809553 -0.062350493 0.20665337 -0.11179672
-0.20636281 0.07854625 -0.1168227 -0.27439022 0.18541296 0.04550612 -0.1039785 0.004971615
-0.06779058 -0.22560772 0.12461324 -0.029397702 -0.058147702 0.2426273 0.103357494 0.0036860642
-0.18686649 -0.11953285 -0.103469186 0.12686892 0.013825299 -0.05772842 -0.16427642 -0.060460977
-0.05971765 0.16768567 -0.047503073 0.05156406 -0.20000689 0.09394745 0.099404454 -0.075630374
0.025058692 0.18933465 0.008694411 -0.06466224 -0.088425085 -0.06556095 -0.091512725 -0.010885106
0.14392854 0.2570195 0.081499554 -0.24089542 -0.13006316 -0.07523857 -0.22268695 -0.15819119
-0.099448554 -0.14033782 -0.17304751 -0.13322438 0.045477204 0.106029116 0.008810229 -0.20271453
-0.25486022 -0.10032686 0.14832391 0.11755665 0.060918737 -0.06636019 -0.002961929 0.01176207
0.07388671 -0.19001324 -0.23663169 0.021901682 0.04633728 -0.22510418 0.060341883 -0.20305707
-0.22596844 -0.26475185 0.03336582 0.15666251 -0.063827045 0.09606855 0.20723374 -0.1763015
-0.08398927 -0.048421744 -0.03176259 -0.15084454 -0.14953007 0.20821431 0.13808596 -0.10509336
-0.21880794 -0.0898513 -0.12018303 -0.070671946 -0.2037958 0.010503787 -0.15762685 -0.16962077
-0.048464324 0.08824738 -0.12663402 -0.05111557 -0.023365773 -0.00085011247 0.13821565 -0.05901391
-0.16901006 0.04112927 0.044581346 -0.035145853 0.25331077 0.08472504 -0.08359298 -0.26224068
-0.11337894 0.18173757 -0.028130686 0.08492568 -0.020881979 -0.028932907 -0.15073219 -0.120089695
0.05016258 -0.069436565 -0.035466928 0.12579192 -0.10894576 -0.09418657 0.11232747 -0.09501294
-0.11113645 0.02501135 -0.18764195 -0.23521553 -0.04905256 -0.035700303 -0.00015693056 0.09019503
-0.17666076 -0.12777759 -0.24000989 0.1474204 0.020801885 -0.05434993 0.19880292 -0.021102505
-0.23488931 0.103217855 0.121692866 0.093856305 -0.04538457 -0.06509863 0.02169938 -0.04009086
-0.105181396 -0.23877291 0.015025064 0.12293886 0.113350324 -0.25178018 -0.17101218 -9.372769e-05
-0.28551754 -0.20725949 0.024148935 -0.02341769 -0.016583422 0.053087376 -0.13806368 -0.08752275
-0.0267106 -0.017144596 -0.055076867 0.04727623 -0.143894 -0.035784 0.08136566 0.061060023
-0.240465 0.039721906 0.13126503 -0.043651026 0.11206224 0.23581965 -0.049810503 -0.16080983
0.1100744 -0.11625209 -0.15960559 0.15986842 0.03388945 0.03922959 0.15807036 0.12964045
0.062287275 -0.19313964 -0.2821657 -0.10171109 -0.104475565 -0.10298221 -0.19845957 0.08979732
-0.096473105 -0.1203988 0.05288069 0.11292527 -0.007597547 -0.13043652 -0.004006615 -0.107308716
0.14153494 -0.14787865 -0.3005078 0.11041213 -0.03146457 -0.27255985 -0.19635068 -0.075319864
-0.20949347 0.124669865 0.021394499 -0.06616991 0.19650453 0.14468938 0.029045252 -0.18258472
-0.103014044 -0.17481092 -0.15799937 -0.09033889 -0.0282894 -0.082136594 -0.11787988 -0.012949204
0.048941396 -0.045010097 0.18439214 0.14402607 0.03620437 -0.18533161 -0.02368361 -0.0412552
-0.1939332 -0.10167078 -0.22153023 -0.23466413 -0.24639481 -0.14167506 0.0011571408 -0.17714883
00000000: e2ba 933d 7269 0d3d 238c 16bd 8a13 babd
00000010: 5ba6 17be 3b63 7fbd f19c 533e aef5 e4bd
00000020: c650 53be dbdc a03d bd40 efbd e07c 8cbe
00000030: e5dc 3d3e a064 3a3d aef2 d4bd eee8 a23b
00000040: cad5 8abd b605 67be 3a35 ff3d 73d3 f0bc
00000050: 492c 6ebd 4a73 783e 18ad d33d e591 713b
00000060: ee59 3fbe a4cd f4bd a7e7 d3bd ede9 013e
00000070: 8283 623c a374 6cbd 1438 28be eea5 77bd
00000080: 7f9a 74bd cbb5 2b3e 9592 42bd d634 533d
00000090: 9bce 4cbe 8567 c03d 9094 cb3d 19e4 9abd
000000a0: e347 cd3c f1e0 413e 0173 0e3c a36d 84bd
000000b0: 3618 b5bd d244 86bd 066b bbbd 7257 32bc
000000c0: 0162 133e 0f98 833e 3de9 a63d 4aad 76be
000000d0: 472f 05be ae16 9abd 0c08 64be dffc 21be
000000e0: afab cbbd b8b4 0fbe 5e33 31be f96b 08be
000000f0: 4e46 3a3d cb25 d93d c758 103c 6694 4fbe
00000100: 0a7d 82be 2b78 cdbd 39e2 173e 8ac1 f03d
00000110: ed85 793d dae7 87bd ec1c 42bb b2b5 403c
00000120: ea51 973d d592 42be 944f 72be 286b b33c
00000130: 29cc 3d3d b681 66be 0d29 773d 31ee 4fbe
00000140: 4564 67be 8e8d 87be 99aa 083d 236c 203e
00000150: c1b7 82bd 97bf c43d 1535 543e 6188 34be
00000160: 9102 acbd e155 46bd 7d19 02bd fe76 1abe
00000170: 691e 19be 2236 553e 6866 0d3e 303b d7bd
00000180: 300f 60be f503 b8bd 8522 f6bd 74bc 90bd
00000190: d9af 50be 1318 2c3c ef68 21be 11b1 2dbe
000001a0: 8782 46bd 0bbb b43d 59ac 01be 8f5e 51bd
000001b0: 9469 bfbc 15da 5eba 6788 0d3e 92b8 71bd
000001c0: f910 2dbe 2a77 283d ee9a 363d 19f5 0fbd
000001d0: f3b1 813e 5284 ad3d cc32 abbd 6944 86be
000001e0: 3833 e8bd 6a19 3a3e 5372 e6bc 84ed ad3d
000001f0: af10 abbc b404 edbc 8a59 1abe 96f1 f5bd
00000200: 4777 4d3d c234 8ebd c545 11bd 99cf 003e
00000210: f41e dfbd e3e4 c0bd f20b e63d 2596 c2bd
00000220: 829b e3bd 9ae4 cc3c 3625 40be 57dc 70be
00000230: 56eb 48bd 7b3a 12bd ba8d 24b9 2cb8 b83d
00000240: 8fe6 34be 21d8 02be 27c5 75be 60f5 163e
00000250: b768 aa3c 089e 5ebd fe92 4b3e 29df acbc
00000260: d386 70be e263 d33d 1c3a f93d bc37 c03d
00000270: 2ce5 39bd 6e52 85bd e6c2 b13c 5036 24bd
00000280: 5869 d7bd e380 74be b02b 763c 5ec7 fb3d
00000290: 3724 e83d 55e9 80be d11d 2fbe ac8f c4b8
000002a0: 5b2f 92be d53b 54be fdd3 c53c 75d6 bfbc
000002b0: f5d9 87bc 2672 593d 9160 0dbe 213f b3bd
000002c0: 30d0 dabc d372 8cbc 4898 61bd b8a4 413d
000002d0: f358 13be 3e92 12bd 0aa3 a63d 131a 7a3d
000002e0: 753c 76be 70b3 223d 576a 063e 6bcb 32bd
000002f0: e380 e53d b57a 713e 1906 4cbd 55ab 24be
00000300: b06e e13d 9315 eebd a66f 23be 8cb4 233e
00000310: aacf 0a3d 35af 203d 32dd 213e 77c0 043e
00000320: f120 7f3d 66c6 45be 0678 90be e74d d0bd
00000330: 49f7 d5bd 56e8 d2bd fc38 4bbe a8e7 b73d
00000340: b193 c5bd a593 f6bd 6c99 583d 5d45 e73d
00000350: d8f4 f8bb 2791 05be ec49 83bb acc4 dbbd
00000360: 89ee 103e 806d 17be 29dc 99be c11f e23d
00000370: fee0 00bd f78c 8bbe 2710 49be 4d41 9abd
00000380: 7585 56be ea52 ff3d 8443 af3c 1784 87bd
00000390: 7c38 493e 7429 143e 4ff0 ed3c 7df7 3abe
000003a0: 07f9 d2bd a201 33be 96ca 21be 9903 b9bd
000003b0: 2cbf e7bc 3b37 a8bd 026b f1bd e628 54bc
000003c0: c676 483d 825c 38bd 4bd1 3c3e 927b 133e
000003d0: 094b 143d 92c7 3dbe 2104 c2bc 36fb 28bd
000003e0: 6d96 46be c538 d0bd d2d8 62be cb4b 70be
000003f0: ec4e 7cbe 4413 11be 34ab 973a 8166 35be

bias f4 [80]
-0.057446603 -0.04864646 -0.17378105 0.07867345 0.07374287 -0.13426533 -0.14918971 -0.09881084
0.051290937 -0.12720026 -0.17667358 0.008763595 0.001608521 -0.17953171 0.08354437 -0.0847859
-0.07677393 -0.08418733 0.016878895 0.044077862 -0.13190724 -0.13941285 0.03250802 -0.00027057304
-0.021473333 -0.17463121 -0.11227107 -0.08702903 -0.09335627 -0.04118096 -0.11123597 -0.06697837
0.0015669843 0.08330638 -0.1743656 -0.15508963 -0.091579475 0.080339134 -0.0103172455 -0.032989185
-0.13690832 -0.09314223 0.041713025 -0.06331472 0.070452005 -0.14652479 -0.0752361 -0.08357698
0.023437308 -0.14317454 0.038537867 0.0014090127 0.0046275025 -0.007001194 0.016858669 -0.13910027
-0.002546152 0.01771165 -0.013398798 0.06685133 -0.063445695 0.051305294 -0.046469167 -0.08462073
-0.1736472 -0.058805656 -0.025367327 -0.058295045 0.04301295 -0.12406292 -0.046583433 0.012368164
-0.1297623 -0.08614347 0.06455605 -0.039806552 -0.01093918 -0.12788363 -0.19735108 -0.1668113
00000000: 214d 6bbd 8341 47bd a9f3 31be 8c1f a13d
00000010: 8006 973d da7c 09be 30c5 18be 565d cabd
00000020: 7216 523d c940 02be ebe9 34be 2e95 0f3c
00000030: 02d5 d23a 29d7 37be 5019 ab3d 3ba4 adbd
00000040: a63b 9dbd 686a acbd 9c45 8a3c fd8a 343d
00000050: b112 07be 3ec2 0ebe 2127 053d b3db 8db9
00000060: d8e8 afbc 86d2 32be 60ee e5bd 473c b2bd
00000070: 9231 bfbd 5ead 28bd afcf e3bd f52b 89bd
00000080: 4563 cd3a 899c aa3d e58c 32be d1cf 1ebe
00000090: 058e bbbd d888 a43d aa09 29bc ab1f 07bd
000000a0: b231 0cbe 5ac1 bebd 47db 2a3d 26ab 81bd
000000b0: 2449 903d 980a 16be 6215 9abd 682a abbd
000000c0: 99ff bf3c 599c 12be e2d9 1d3d 9fae b83a
000000d0: 4ea2 973b 466a e5bb 311b 8a3c 4d70 0ebe
000000e0: 58dd 26bb 0618 913c a286 5bbc 5ae9 883d
000000f0: d1ef 81bd 8025 523d 7456 3ebd a24d adbd
00000100: 92d0 31be 33de 70bd 24cf cfbc c9c6 6ebd
00000110: 592e 303d b314 febd 45ce 3ebd d7a3 4a3c
00000120: 69e0 04be fd6b b0bd f635 843d 320c 23bd
00000130: 3f3a 33bc edf3 02be 6716 4abe 95d0 2abe
