Project/Project_2/stage_1.pth (torch_old, 965586 bytes, 20 tensors)

weight f4 [8, 3, 5, 5]
-0.084152415 0.020462772 -0.10172696 -0.09683548 -0.055827707 -0.09736374 -0.10159229 -0.062392183
-0.0969287 0.061542775 0.013585526 -0.083004326 0.0015723583 -0.09727352 0.0531094 0.0755879
0.08519637 0.019223893 -0.024091877 0.019758968 -0.049450874 0.09631203 0.03195959 -0.023564262
-0.037964992 -0.032625258 -0.06103172 0.081355356 0.075388245 0.042944197 0.04993255 -0.068188354
0.067408584 0.020487044 -0.11478276 -0.06260649 0.10338262 -0.032143913 0.06160695 0.099015094
0.099285856 -0.035265848 -0.05055387 -0.06584308 -0.045599937 -0.07214858 0.0993724 0.020347068
0.11423345 -0.112369426 0.029426062 0.10935793 -0.11426733 -0.041445546 -0.03166867 -0.0129143335
-0.11583049 0.106070645 -0.10257036 -0.084863365 0.08676521 -0.08622141 -0.016035069 -0.072504185
0.022043178 0.06267558 -0.05566972 -0.014511654 -0.034763996 -0.10953385 -0.10747552 -0.0763795
-0.06077788 0.11017626 -0.07372563 -0.06916153 -0.10060079 -0.025458213 -0.049481425 0.09344098
-0.0638866 0.05160568 0.0308007 -0.103981234 -0.09279602 0.08128238 0.005846053 0.0106657995
0.08736646 -0.05617354 0.07926629 -0.06336267 0.006539939 0.048288945 0.054180626 0.054999337
-0.0072730165 0.03289953 0.078032 -0.07846948 0.09756755 -0.078965984 0.10429286 -0.031077873
-0.02523108 0.021644823 0.07637334 0.027883075 -0.03707982 -0.09958548 0.07481138 -0.08501956
-0.042324014 0.09077279 -0.11519234 0.030848864 0.058514554 0.094876975 -0.109314054 -0.049141698
0.064817905 0.03346664 0.04589827 -0.04699414 0.1103593 0.04958187 0.04767931 0.09274835
0.07380822 -0.091204524 -0.034560416 0.03916546 -0.047266092 -0.08936185 0.069531314 -0.042608082
0.006210322 -0.049748883 -0.043517917 -0.022403663 0.027691728 0.102144495 -0.06158076 0.09176172
-0.089955576 -0.10109452 0.02830538 0.03291587 -0.05988649 -0.028401906 0.00740531 0.09208417
-0.038814794 0.112932794 -0.059457265 0.06771406 -0.06753618 -0.019130146 -0.05655951 -0.002264237
-0.09326059 -0.017201308 -0.041189764 0.007262395 -0.050797023 0.0064991517 0.11219999 -0.10093482
-0.06192859 -0.04574078 0.109313466 0.016119733 -0.0019762646 0.092913486 -0.078168176 0.066717215
0.051764034 -0.0010697731 -0.116340764 -0.04918829 0.0494464 -0.087577395 -0.08099928 0.009066011
-0.022792462 -0.11083926 -0.09060257 -0.0011871892 0.09023567 -0.06410758 0.046431765 -0.08446324
0.027408855 0.11180541 0.05961415 -0.009283502 -0.04124964 -0.076220974 0.02652344 -0.061651975
0.10426933 -0.09216981 -0.064552 0.063237816 0.03618365 0.060637828 -0.047670983 -0.025020294
0.10118099 -0.06764216 0.014849649 -0.08835689 -0.11258016 0.02809873 0.025527278 0.06190296
0.0553344 -0.10063926 0.0007489995 0.05489491 -0.099257916 -0.07933415 -0.021613972 -0.049021386
-0.09721936 -0.08317808 -0.04949806 0.06261293 0.010842329 -0.059746504 -0.09264481 -0.030991718
0.07449342 -0.036253825 0.026181974 -0.03230973 0.04242088 0.10548793 0.020861652 0.06324126
0.119647145 0.04031886 0.07730606 -0.087169595 0.12152467 -0.015266985 -0.057638053 -0.065577045
0.027216814 -0.08568743 0.09379912 -0.06184841 -0.0074090706 0.08004748 -0.09654988 0.11175682
00000000: 1a58 acbd 8ba1 a73c 3956 d0bd ae51 c6bd
00000010: 98ab 64bd a466 c7bd 9e0f d0bd f28e 7fbd
00000020: 8e82 c6bd 4714 7c3d d395 5e3c 2cfe a9bd
00000030: 9717 ce3a 5737 c7bd 3e89 593d d4cd 9a3d
00000040: 6f7b ae3d 6d7b 9d3c 545c c5bc 8fdd a13c
00000050: 008d 4abd 3e3f c53d 0fe8 023d d709 c1bc
00000060: 2e81 1bbd 10a2 05bd 66fc 79bd a39d a63d
00000070: 2765 9a3d 41e6 2f3d 1386 4c3d 56a6 8bbd
00000080: 830d 8a3d 72d4 a73c 3913 ebbd d537 80bd
00000090: 44ba d33d 56a9 03bd 9257 7c3d 6dc8 ca3d
000000a0: 6256 cb3d ec72 10bd 9311 4fbd bdd8 86bd
000000b0: 00c7 3abd a2c2 93bd c283 cb3d e5ae a63c
000000c0: 3af3 e93d f121 e6bd ed0e f13c 0df7 df3d
000000d0: fd04 eabd cec2 29bd 02b7 01bd a496 53bc
000000e0: 8938 edbd 913b d93d 6910 d2bd d8cc adbd
000000f0: f5b1 b13d da94 b0bd fa5b 83bc 137d 94bd
00000100: e593 b43c 0e5c 803d ef05 64bd 4ac2 6dbc
00000110: b164 0ebd 4853 e0bd 201c dcbd db6c 9cbd
00000120: 3af2 78bd 17a4 e13d 77fd 96bd 8fa4 8dbd
00000130: c907 cebd be8d d0bc 09ad 4abd fc5d bf3d
00000140: fad6 82bd 7a60 533d c051 fc3c 1df4 d4bd
00000150: d70b bebd 6077 a63d 3f90 bf3b 9bbf 2e3c
00000160: 30ed b23d 3a16 66bd 5d56 a23d 4ac4 81bd
00000170: fc4c d63b a1ca 453d 81ec 5d3d fc46 613d
00000180: 7c52 eebb a8c1 063d 3ecf 9f3d 9bb4 a0bd
00000190: 7fd1 c73d ebb8 a1bd 7f97 d53d 0697 febc
000001a0: 69b1 cebc 7c50 b13c a069 9c3d 0c6b e43c
000001b0: 02e1 17bd 79f3 cbbd b536 993d bc1e aebd
000001c0: f25b 2dbd 16e7 b93d f6e9 ebbd c2b6 fc3c
000001d0: f5ac 6f3d dc4e c23d 0ce0 dfbd ce48 49bd
000001e0: 40bf 843d 5114 093d d3ff 3b3d ed7c 40bd
000001f0: 0f04 e23d 5c16 4b3d 614b 433d d9f2 bd3d
00000200: c428 973d 70c9 babd 398f 0dbd f66b 203d
00000210: 179a 41bd 5803 b7bd 6f66 8e3d d085 2ebd
00000220: f57f cb3b 7cc5 4bbd d83f 32bd e387 b7bc
00000230: c3d9 e23c 2231 d13d 1b3c 7cbd 92ed bb3d
00000240: a13a b8bd a50a cfbd afe0 e73c cbd2 063d
00000250: 894b 75bd 1dab e8bc 3ea8 f23b a096 bc3d
00000260: 43fc 1ebd 4f49 e73d 7689 73bd abad 8a3d
00000270: 6950 8abd d3b6 9cbc f2aa 67bd 9863 14bb
00000280: 69ff bebd c2e9 8cbc 99b6 28bd 63f9 ed3b
00000290: 8a10 50bd d6f6 d43b 1cc9 e53d eab6 cebd
000002a0: d5a8 7dbd af5a 3bbd bddf df3d 880d 843c
000002b0: 3884 01bb 6d49 be3d a316 a0bd 09a3 883d
000002c0: 8606 543d a137 8cba 1144 eebd a979 49bd
000002d0: 4f88 4a3d c75b b3bd f3e2 a5bd 9b89 143c
000002e0: 42b7 babc b2ff e2bd d78d b9bd 769b 9bba
000002f0: 7bcd b83d d64a 83bd 3c2f 3e3d 10fb acbd
00000300: 8988 e03c 3cfa e43d f82d 743d d419 18bc
00000310: 62f5 28bd be19 9cbd af47 d93c c886 7cbd
00000320: 298b d53d 86c3 bcbd d733 84bd d482 813d
00000330: 4f35 143d 5f5f 783d a642 43bd 5cf7 ccbc
00000340: fb37 cf3d f987 8abd f14b 733c 75f4 b4bd
00000350: 6d90 e6bd 4f2f e63c 951e d13c f58d 7d3d
00000360: 53a6 623d f51b cebd 8158 443a 7cd9 603d
00000370: bc47 cbbd f179 a2bd c90f b1bc a6ca 48bd
00000380: f21a c7bd 4559 aabd 7abe 4abd 353b 803d
00000390: 06a4 313c c0b8 74bd 90bc bdbd 58e2 fdbc
000003a0: 0290 983d e47e 14bd 947b d63c 3557 04bd
000003b0: 84c1 2d3d 0e0a d83d 0ee6 aa3c a284 813d
000003c0: 9009 f53d 6425 253d a452 9e3d f985 b2bd
000003d0: ede1 f83d 6022 7abc e115 6cbd 424d 86bd
000003e0: ccf5 de3c e47c afbd c119 c03d c254 7dbd
000003f0: cac7 f2bb efef a33d f2bb c5bd c2e0 e43d

bias f4 [8]
-0.087952405 -0.049836617 0.10697942 -0.033549506 0.07053042 0.020774141 0.041122656 0.064918615
00000000: 6420 b4bd 7b21 4cbd 0718 db3d 356b 09bd
00000010: 4172 903d 882e aa3c 3b70 283d 0df4 843d

weight f4 [16, 8, 3, 3]
-0.10486719 0.007754696 -0.03727647 -0.10932258 -0.05495888 -0.05616382 -0.009454749 -0.0030002766
0.055398144 -0.027966738 -0.102900684 -0.09439955 0.084621884 0.07213903 -0.058936108 0.11356793
0.06706459 -0.006334364 -0.08437717 -0.031533618 -0.013564488 -0.010133726 -0.07512681 -0.04667447
-0.06003959 0.101181164 0.045833334 0.077199124 0.112838626 0.06985204 0.014433476 0.06517759
-0.04771786 -0.020724917 -0.061792582 -0.04173004 -0.013435525 -0.043109734 -0.10693151 0.04471917
0.046112888 -0.08835642 -0.021053376 0.01610766 -0.07807687 0.040428247 0.113135315 0.05641993
-0.05236527 -0.09793459 0.11021668 0.07113955 -0.09998981 -0.06720331 0.083724454 -0.11165048
-0.06361167 0.025926748 -0.04519431 0.030119319 -0.031584334 0.08027442 -0.09152735 0.041408803
0.05727067 0.05243873 0.06880864 -0.06856115 0.078185216 0.092939384 0.04580202 0.07965124
0.020149348 0.049165536 -0.10965591 -0.052277952 -0.02264678 0.012724586 0.08710722 0.09006534
0.019049602 0.031934947 -0.064814016 -0.056885317 -0.07691563 0.037273806 0.06778808 -0.07733141
0.08740793 0.108504236 0.08905966 0.046567265 -0.060262434 -0.033811636 -0.11716857 -0.101572335
-0.043894153 0.079888284 0.013386843 0.079673655 0.023336666 0.09160388 -0.115495555 0.022599205
-0.011663039 -0.0820054 -0.009213506 -0.031625614 -0.104385704 0.10304168 -0.09018846 0.11378896
0.08131561 -0.061387125 0.03384726 -0.10265469 0.030958071 0.005394331 0.013667805 0.036902044
0.0062314067 -0.008858775 -0.10897489 0.07991254 0.08416736 -0.053903405 -0.013635131 0.027971292
-0.06254834 0.078071855 0.06960932 0.0349468 -0.057163227 -0.07285162 0.038306054 0.080409914
-0.019786658 -0.02244777 0.113941364 -0.045742594 -0.10088002 0.008137867 0.07522644 -0.0133495405
-0.10418591 0.020208973 -0.102620065 0.09624847 -0.070188135 -0.05733389 0.04580435 0.045090478
0.054518465 0.034875892 0.07973965 -0.0041392623 -0.04655078 -0.027146194 0.060611416 -0.03645899
-0.041652236 0.007692403 0.030069426 -0.025183024 0.09888193 0.055485327 0.06594288 0.0727464
0.021668049 -0.08581225 0.11336474 -0.033412512 0.035028934 -0.024084136 -0.023621557 -0.013805383
0.02998339 0.0838258 0.053166233 0.112808526 0.075319394 0.066371605 -0.062447198 0.017126942
-0.0352371 0.07293762 0.05574709 -0.01572212 0.03808513 -0.01904014 0.002644177 -0.07876678
-0.041616622 -0.056229733 0.0028494978 0.08828494 -0.086109966 0.032987718 0.07218835 -0.11540743
-0.07504607 -0.10605651 -0.0451352 0.039530255 -0.058429558 -0.078710526 0.024802813 -0.034922235
-0.114583604 -0.039204374 -0.06207282 0.07362725 0.050493136 0.046395 0.01502253 -0.09121621
-0.05981415 -0.110932454 0.0035542352 0.033767365 0.00018491923 0.032858524 0.0046558115 -0.10708018
-0.0032854136 -0.1016384 -0.026617894 -0.07247347 -0.06051552 0.068045855 -0.054267537 -0.09033723
0.036815304 -0.07806642 0.051231723 -0.00295328 0.043668073 0.08209344 -0.071967855 0.067453064
-0.005601894 0.096995115 -0.053364202 0.076701336 -0.04537141 0.03151809 -0.041413806 0.030813139
-0.09070757 0.03354948 0.06397406 -0.01773449 0.010066053 0.11039847 0.055894285 0.036452025
00000000: 9cc4 d6bd 1b1b fe3b 36af 18bd 84e4 dfbd
00000010: 901c 61bd 090c 66bd 17e8 1abc 4aa0 44bb
00000020: 2ae9 623d 801a e5bc 98bd d2bd 8d54 c1bd
00000030: 3d4e ad3d a1bd 933d fd66 71bd 4e96 e83d
00000040: 2959 893d 7f90 cfbb f0cd acbd 6529 01bd
00000050: 963d 5ebc ed07 26bc 16dc 99bd bb2d 3fbd
00000060: 13ec 75bd 1238 cf3d bcbb 3b3d 931a 9e3d
00000070: f017 e73d 960e 8f3d 637a 6c3c d47b 853d
00000080: ce73 43bd 4dc7 a9bc 381a 7dbd 1eed 2abd
00000090: ad20 5cbc d593 30bd e8fe dabd 732b 373d
000000a0: dee0 3c3d 36f4 b4bd 2178 acbc 36f4 833c
000000b0: c4e6 9fbd 1798 253d 7db3 e73d 9618 673d
000000c0: f77c 56bd ee91 c8bd 48b9 e13d 9db1 913d
000000d0: 75c7 ccbd e4a1 89bd ba77 ab3d 02a9 e4bd
000000e0: d646 82bd 5564 d43c ab1d 39bd cabc f63c
000000f0: 935e 01bd ea66 a43d b172 bbbd 479c 293d
00000100: a694 6a3d fec9 563d 8beb 8c3d ca69 8cbd
00000110: 921f a03d 0157 be3d e69a 3b3d 3020 a33d
00000120: 3f10 a53c cd61 493d 4793 e0bd 6821 56bd
00000130: bd85 b9bc c87a 503c 4565 b23d 2d74 b83d
00000140: e90d 9c3c 38ce 023d 36bd 84bd 9400 69bd
00000150: f185 9dbd 6bac 183d 7ad4 8a3d ee5f 9ebd
00000160: ee02 b33d 7837 de3d e964 b63d 51bd 3e3d
00000170: bed5 76bd 127e 0abd 13f6 efbd 2805 d0bd
00000180: 5bca 33bd 789c a33d 7d54 5b3c f12b a33d
00000190: 892c bf3c d19a bb3d ef88 ecbd f821 b93c
000001a0: 5516 3fbc 72f2 a7bd 3ff4 16bc dc89 01bd
000001b0: 2cc8 d5bd 8407 d33d bab4 b8bd 300a e93d
000001c0: cc88 a63d 1171 7bbd 6da3 0a3d 9f3c d2bd
000001d0: c89b fd3c eec2 b03b eeee 5f3c 9926 173d
000001e0: d430 cc3b 6524 11bc 3a2e dfbd 30a9 a33d
000001f0: f05f ac3d d1c9 5cbd e265 5fbc 0d24 e53c
00000200: 5819 80bd 23e4 9f3d 558f 8e3d 6024 0f3d
00000210: fd23 6abd 3b33 95bd cfe6 1c3d f4ad a43d
00000220: a117 a2bc 63e4 b7bc 175a e93d 965c 3bbd
00000230: 2f9a cebd b054 053c 5210 9a3d 08b8 5abc
00000240: 6c5f d5bd 4a8d a53c 782a d2bd eb1d c53d
00000250: ccbe 8fbd f1d6 6abd 589d 3b3d cbb0 383d
00000260: c14e 5f3d 06da 0e3d 8b4e a33d a6a2 87bb
00000270: 08ac 3ebd b261 debc ad43 783d 0656 15bd
00000280: 899b 2abd 8e10 fc3b 2854 f63c a14c cebc
00000290: 9c82 ca3d 9544 633d 100d 873d 11fc 943d
000002a0: 3181 b13c 55be afbd c62b e83d 8fdb 08bd
000002b0: 807a 0f3d 184c c5bc ff81 c1bc f92f 62bc
000002c0: ba9f f53c dcac ab3d d6c4 593d 2808 e73d
000002d0: 0e41 9a3d d6ed 873d a2c8 7fbd cd4d 8c3c
000002e0: c754 10bd 5260 953d 1057 643d adcb 80bc
000002f0: 27ff 1b3d 11fa 9bbc ee49 2d3b 7a50 a1bd
00000300: 3176 2abd 2651 66bd a4be 3a3b bcce b43d
00000310: 6c5a b0bd 211e 073d 7cd7 933d bb5a ecbd
00000320: c1b1 99bd 2834 d9bd b0df 38bd 7aea 213d
00000330: d553 6fbd fc32 a1bd 452f cb3c 9e0a 0fbd
00000340: cfaa eabd c494 20bd 1240 7ebd e2c9 963d
00000350: e4d1 4e3d af08 3e3d 0f21 763c 90cf babd
00000360: afff 74bd 8e30 e3bd 2cee 683b a64f 0a3d
00000370: e1e6 4139 a996 063d c78f 983b da4c dbbd
00000380: 1850 57bb cb27 d0bd c50d dabc f86c 94bd
00000390: 1fdf 77bd a05b 8b3d a347 5ebd ba02 b9bd
000003a0: a5cb 163d 4ae1 9fbd 5bd8 513d d18b 41bb
000003b0: 4bdd 323d 9b20 a83d e263 93bd d524 8a3d
000003c0: 1890 b7bb 60a5 c63d 6c94 5abd 9715 9d3d
000003d0: 5fd7 39bd 1d19 013d 86a1 29bd d66b fc3c
000003e0: e4c4 b9bd 2e6b 093d d504 833d ec47 91bc
000003f0: 16ec 243c 9818 e23d 68f1 643d b84e 153d

bias f4 [16]
0.085729115 -0.11583626 0.08684292 -0.09693453 0.009887807 -0.09061272 -0.08816554 0.10501077
-0.073944144 0.06436081 0.025590787 -0.08857285 0.068338536 -0.107786536 -0.00093818293 -0.00076519133
00000000: bf92 af3d 903b edbd b3da b13d 9c85 c6bd
00000010: 7800 223c 2993 b9bd 2290 b4bd e30f d73d
00000020: 0770 97bd 9acf 833d c5a3 d13c af65 b5bd
00000030: 13f5 8b3d 30bf dcbd 64f0 75ba 1f97 48ba

weight f4 [16, 16, 3, 3]
-0.0806679 0.021685379 -0.07020606 0.032322124 -0.07827964 0.0036181065 -0.07694795 -0.04573996
0.07260163 0.058682393 0.019829199 0.019596243 0.06455507 0.08022854 -0.030125119 0.07112306
-0.0039400547 -0.011072249 -0.03174437 -0.042905547 0.008854428 -0.0121536255 0.080218166 -0.06004646
-0.060540255 -0.016068138 0.070395574 -0.013003161 -0.069448285 -0.015922934 0.065687574 -0.074295945
-0.058120538 -0.014168094 -0.020049665 -0.015259799 0.07647848 0.06931831 -0.047350936 -0.027769217
-0.023815216 0.06687179 -0.008176652 0.010235509 -0.06327826 0.05752333 0.046045516 0.0127660725
0.048370693 -0.03996709 0.060942817 -0.071393766 -0.00915399 -0.016592251 -0.06881356 0.045549273
-0.033577945 0.016747782 0.07574156 0.0003715561 0.09040722 -0.012713425 0.027066007 0.06363901
-0.011651332 0.069172375 -0.06591895 0.07506727 0.060977403 -0.033472285 -0.0014133939 -0.022587812
0.08511367 0.06712534 -0.003335537 -0.07967681 -0.016842201 -0.05165636 0.036075626 0.020612389
0.082811825 -0.06511975 -0.0678378 -0.02942392 -0.044368234 -0.06916565 0.022595182 0.02968861
0.077377215 -0.018024845 -0.062058143 -0.06650519 0.003608243 0.02040561 0.089184985 0.05847477
0.056936577 0.015751313 0.008417026 -0.05436416 0.047880437 0.07047967 0.07595795 -0.04467629
0.045038067 0.016128192 0.019925771 0.058631804 0.054413453 0.041770514 -0.033700053 0.015715431
-0.0299868 -0.024660109 0.043895945 0.06077527 0.04378471 0.057409327 0.029282112 0.03202383
0.00067484804 -0.029790627 0.063260034 -0.041285194 -0.041296106 -0.04378618 0.04936067 -0.02384624
-0.037007302 0.04232003 0.069138415 0.050984286 -0.049515877 -0.026759615 0.010032242 0.07939312
0.058494285 0.07733638 -0.018372796 0.0393306 -0.01121122 -0.03941653 0.04920023 -0.0100418655
0.07505973 -0.075671054 -0.021135053 0.07696788 -0.023054652 0.028553326 -0.037840962 -0.0037803783
0.07623773 -0.00020781517 0.021401798 -0.06408141 -0.034808412 -0.016194595 0.027348585 -0.038357344
0.015413399 0.048172668 -0.07675131 -0.019524274 0.0028714798 -0.014065433 0.06934448 -0.049086113
0.005088161 -0.013469543 -0.066186935 -0.054800123 -0.078096904 -0.014240721 0.08050253 -0.079974554
-0.0020170386 0.074471764 0.02937565 -0.0383268 0.04793141 -0.005414744 -0.0060493103 0.049665175
-0.024597216 -0.037430424 0.07007529 -0.007087821 0.012011295 0.043953963 -0.08169956 0.053473946
-0.019879999 -0.027940178 -0.04774728 -0.06617707 -0.07714769 0.011723635 0.039179422 -0.009775807
-0.00077804347 0.0048774066 -0.069731526 -0.034944944 0.026253624 0.031233078 0.04196277 -0.021165855
0.030336024 0.025492003 -0.07753997 -0.07133149 -0.043415282 -0.035910092 -0.04391283 -0.025224416
-0.03024937 -0.006405651 0.06418555 0.04773434 -0.026744122 -0.07221354 -0.01698277 -0.0065389927
-0.023227528 -0.07331399 0.061380096 -0.030601444 -0.06114771 0.030809624 -0.061760217 -0.043190125
0.013002054 -0.056005705 0.021860944 -0.058112524 -0.05280514 0.050511528 0.047919575 -0.027118456
0.07579635 0.020505963 0.063718215 -0.06107849 0.05259327 -0.043722026 0.070999205 0.08360814
-0.014643934 -0.041577462 -0.074461184 -0.012951022 -0.0128041515 -0.00973301 0.06886719 0.0486278
00000000: 3635 a5bd 89a5 b13c 32c8 8fbd 3464 043d
00000010: 1351 a0bd c11d 6d3b e396 9dbd d359 3bbd
00000020: 2ab0 943d f35c 703d d870 a23c 4d88 a03c
00000030: 7335 843d dc4e a43d f4c8 f6bc f8a8 913d
00000040: 931b 81bb 6168 35bc 6206 02bd babd 2fbd
00000050: 2a12 113c 0020 47bc 6c49 a43d 47f3 75bd
00000060: 0ff9 77bd 54a1 83bc 8e2b 903d 360b 55bc
00000070: e73a 8ebd d070 82bc 3587 863d 7928 98bd
00000080: cd0f 6ebd 4b21 68bc 323f a4bc 3c04 7abc
00000090: c0a0 9c3d c2f6 8d3d 0ef3 41bd 457c e3bc
000000a0: 2118 c3bc 14f4 883d 5df7 05bc d6b2 273c
000000b0: 0898 81bd 959d 6b3d 399a 3c3d ca28 513c
000000c0: 5920 463d 88b4 23bd 2d9f 793d e536 92bd
000000d0: 9efa 15bc 79ec 87bc 20ee 8cbd e091 3a3d
000000e0: 0789 09bd a532 893c 641e 9b3d 6acd c239
000000f0: 6c27 b93d f84b 50bc 88b9 dd3c 2b55 823d
00000100: 3ae5 3ebc 3faa 8d3d 8400 87bd debc 993d
00000110: 71c3 793d 3c1a 09bd a141 b9ba 130a b9bc
00000120: 1350 ae3d 0379 893d 0699 5abb 982d a3bd
00000130: a8f8 89bc 9f95 53bd 09c4 133d 50db a83c
00000140: 3f99 a93d 815d 85bd 8bee 8abd 6f0a f1bc
00000150: 77bb 35bd b8a6 8dbd 8819 b93c 8735 f33c
00000160: f277 9e3d d7a8 93bc ae30 7ebd e033 88bd
00000170: 4678 6c3b aa29 a73c 9ea6 b63d 3e83 6f3d
00000180: 5436 693d e608 813c 91e7 093c f4ac 5ebd
00000190: 471e 443d a557 903d d78f 9b3d 7cfe 36bd
000001a0: d679 383d 451f 843c 5f3b a33c e727 703d
000001b0: a4e0 5e3d 8f17 2b3d 1109 0abd a6bd 803c
000001c0: e1a6 f5bc ff03 cabc 3ccc 333d 7def 783d
000001d0: 9957 333d 0b26 6b3d 0ae1 ef3c 6b2b 033d
000001e0: 49e8 303a 790b f4bc 7a8e 813d aa1a 29bd
000001f0: 1b26 29bd 2359 33bd 6a2e 4a3d 3159 c3bc
00000200: f894 17bd c557 2d3d 7198 8d3d e6d4 503d
00000210: 29d1 4abd fb36 dbbc 465e 243c dc98 a23d
00000220: b497 6f3d 8962 9e3d 8c82 96bc 2019 213d
00000230: 44af 37bc 3a73 21bd 2e86 493d a386 24bc
00000240: eab8 993d 6df9 9abd 6b23 adbc 56a1 9d3d
00000250: 1cdd bcbc aae8 e93c 20ff 1abd 39c0 77bb
00000260: 8722 9c3d f6e8 59b9 d352 af3c 1d3d 83bd
00000270: 4493 0ebd 87aa 84bc 240a e03c 971c 1dbd
00000280: 7b88 7c3c b450 453d ca2f 9dbd 5ff1 9fbc
00000290: 702f 3c3b b472 66bc 7b04 8e3d 850e 49bd
000002a0: 97ba a63b 5caf 5cbc 048d 87bd 1876 60bd
000002b0: 45f1 9fbd ea51 69bc 83de a43d b3c9 a3bd
000002c0: 4b30 04bb a784 983d 34a5 f03c 90fc 1cbd
000002d0: ba53 443d 2a6e b1bb 4b39 c6bb b66d 4b3d
000002e0: 1a80 c9bc a550 19bd a283 8f3d f440 e8bb
000002f0: 06cb 443c 1209 343d 1952 a7bd 7f07 5b3d
00000300: 61db a2bc cde2 e4bc a792 43bd d887 87bd
00000310: 9cff 9dbd 7d14 403c 9a7a 203d b52a 20bc
00000320: 9df5 4bba a7d2 9f3b 67cf 8ebd 6e22 0fbd
00000330: d711 d73c 83dc ff3c 27e1 2b3d 0464 adbc
00000340: 4183 f83c 9bd4 d03c 47cd 9ebd 3f16 92bd
00000350: 39d4 31bd 7616 13bd f1dd 33bd 6fa3 cebc
00000360: 87cd f7bc 7fe6 d1bb b773 833d 1585 433d
00000370: 7d16 dbbc b1e4 93bd 731f 8bbc 0c45 d6bb
00000380: a847 bebc a525 96bd b269 7b3d e1af fabc
00000390: 0576 7abd 7764 fc3c 48f8 7cbd 21e8 30bd
000003a0: 9106 553c 3d66 65bd b915 b33c 6607 6ebd
000003b0: 344a 58bd 2de5 4e3d 5147 443d 8627 debc
000003c0: 1e3b 9b3d 1ffc a73c b27e 823d 702d 7abd
000003d0: 0a6c 573d de15 33bd 0868 913d bf3a ab3d
000003e0: 1ced 6fbc 214d 2abd 1b7f 98bd 8630 54bc
000003f0: 81c8 51bc 3477 1fbc 3e0a 8d3d f22d 473d

bias f4 [16]
-0.053889144 0.023137698 -0.02973453 0.036864568 -0.07223133 0.0843227 -0.031604744 0.025881503
0.016633904 0.06727638 -0.06358304 -0.040384 0.044081677 -0.08410027 0.03717547 0.024108576
00000000: ddba 5cbd 458b bd3c d495 f3bc 4dff 163d
00000010: 05ee 93bd 61b1 ac3d fa73 01bd 7205 d43c
00000020: d343 883c 33c8 893d d337 82bd b169 25bd
00000030: fd8e 343d c33c acbd 4e45 183d 597f c53c

weight f4 [24, 16, 3, 3]
0.021100506 0.015081178 -0.008728236 0.02751045 -0.07451748 0.05369494 -0.039238334 -0.05426863
0.050214108 0.043973353 -0.009191541 0.010978891 0.007628175 0.010095642 -0.027789706 0.016035281
-0.02115248 0.062945426 0.0370948 0.063365005 0.035777103 -0.07788848 0.03335307 -0.07785867
0.023440272 0.028551994 -0.0010996612 -0.025465673 -0.041890852 -0.08255381 -0.014858459 0.07470659
0.05617038 -0.07945766 0.06588054 -0.04930507 0.07397648 0.07723307 0.021941662 0.06475602
-0.026775232 -0.02156943 0.039973732 -0.016145723 -0.020820662 -0.051712934 -0.04694018 -0.0047311718
-0.06416199 0.013491291 0.06487922 0.015099421 0.015956426 -0.05264332 0.045940634 -0.01129685
-0.06685065 0.06529299 -0.040302217 -0.049443312 0.07295169 0.054833468 0.042949807 0.029903209
-0.040971246 -0.05166001 0.0043977485 0.050445065 -0.032726314 0.049750768 -0.02278906 0.0818595
0.0061823367 0.011749533 -0.035323717 0.048073262 0.05933421 0.06246457 0.035544977 -0.036590435
0.010726041 -0.03460477 -0.0070128883 -0.007434716 -0.0840048 -0.06778139 0.069751956 0.019161265
-0.018792398 0.055772215 0.07897742 0.06694142 -0.011384089 0.012730217 0.036744073 0.029497147
0.025363896 -0.07914351 -0.081142485 -0.06747226 0.0394344 -0.04934558 0.046561744 0.06633081
0.08156582 0.055096578 0.0037381994 0.063546345 0.028900716 0.02867706 0.034865197 -0.035253268
0.050329037 0.013795128 -0.046250325 0.07038044 -0.074946016 0.052610487 -0.035378903 0.075398326
-0.05890237 -0.035007264 0.07450816 -0.053307712 -0.04678767 0.03051125 -0.029437456 0.01595055
-0.0026170642 -0.043346606 0.073965766 -5.4227337e-05 0.052601073 -0.06872022 0.010160085 0.07445997
-0.012633461 0.023686642 -0.04753156 -0.04904739 0.04256342 -0.081169136 0.049807474 0.0021516555
-0.04141202 -0.08865093 0.054732926 -0.081772156 -0.06480134 0.048077997 0.045867782 0.06256432
0.05694267 0.03467412 -0.076192826 0.0773312 0.004322257 0.00890862 0.08270467 0.07488982
0.018324452 -0.014048228 0.072233945 -0.058612466 -0.088834 0.0623173 0.048539087 -0.044987224
0.061437692 -0.07957867 0.07019883 0.06688022 0.046572007 -0.09013725 -0.05262657 0.022976546
-0.059246186 -0.04261388 -0.0889637 -0.0509646 -0.00092648785 -0.01878457 -0.065647475 -0.018305462
-0.03646925 -0.009564729 -0.027539426 -0.0841357 0.0062363227 -0.034154423 -0.059369627 0.017704194
0.040396634 0.030986259 -0.03835283 -0.03000881 -0.065002754 -0.022873523 0.020938927 0.011017723
-0.018630521 0.043998603 0.05128766 -0.008303069 -0.046887506 -0.06121515 -0.057351198 -0.06607388
-0.0027750318 0.0373328 0.061435852 -0.013620434 -0.05930981 0.0033094848 -0.042203046 0.004228754
-0.07137373 0.04556888 -0.03465251 -0.08563808 0.07392878 0.013228395 -0.05719653 0.016251573
-0.06655338 -0.043114625 0.021215213 -0.066078864 0.029469844 0.0054936856 0.039712556 -0.032785874
0.04843069 -0.07952665 0.051883228 0.0658769 0.035660148 0.02647254 -0.024008678 -0.005413127
-0.055421576 -0.013099182 0.012613396 -0.06098119 0.023559209 -0.03675115 0.03437028 0.060937323
-0.08450014 0.05781936 -0.03071417 -0.010514911 0.049933214 -0.07411267 -0.023177378 -0.025505371
00000000: f8da ac3c 0c17 773c e000 0fbc 985d e13c
00000010: 9f9c 98bd 3aef 5b3d 60b8 20bd c848 5ebd
00000020: 4fad 4d3d 671d 343d 1e98 16bc cee0 333c
00000030: c5f5 f93b 3168 253c 3da7 e3bc 6c5c 833c
00000040: f747 adbc 88e9 803d b8f0 173d 83c5 813d
00000050: 038b 123d ff83 9fbd 3b9d 083d 5e74 9fbd
00000060: d005 c03c dfe5 e93c 8222 90ba 639d d0bc
00000070: be95 2bbd f911 a9bd e570 73bc c5ff 983d
00000080: ea12 663d b3ba a2bd 60ec 863d 1df4 49bd
00000090: fb80 973d 5f2c 9e3d 00bf b33c ce9e 843d
000000a0: bb57 dbbc 60b2 b0bc 7fbb 233d 0944 84bc
000000b0: 1890 aabc f1d0 53bd 5944 40bd f207 9bbb
000000c0: 5d67 83bd 930a 5d3c 66df 843d 9063 773c
000000d0: 0db7 823c 86a0 57bd 3f2c 3c3d 6c16 39bc
000000e0: fee8 88bd 55b8 853d f013 25bd 1285 4abd
000000f0: b267 953d 0f99 603d 23ec 2f3d 93f7 f43c
00000100: 77d1 27bd 7299 53bd fd1a 903b 7c9f 4e3d
00000110: 070c 06bd 76c7 4b3d 1fb0 babc f4a5 a73d
00000120: 3395 ca3b 1d81 403c 9aaf 10bd 78e8 443d
00000130: 6e08 733d d9da 7f3d 9c97 113d dadf 15bd
00000140: 47bc 2f3c bbbd 0dbd 5fcc e5bb eb9e f3bb
00000150: b50a acbd f8d0 8abd 1dda 8e3d 16f8 9c3c
00000160: 84f2 99bc 6871 643d eabe a13d 9518 893d
00000170: 5484 3abc 6692 503c f480 163d 00a4 f13c
00000180: f2c7 cf3c fe15 a2bd 082e a6bd e52e 8abd
00000190: f785 213d 971e 4abd 87b7 3e3d 73d8 873d
000001a0: fb0b a73d f3ac 613d 94fc 743b 9624 823d
000001b0: 32c1 ec3c 27ec ea3c cfce 0e3d bb65 10bd
000001c0: d225 4e3d f604 623c fb70 3dbd 9f23 903d
000001d0: 4c7d 99bd 187e 573d 78e9 10bd 706a 9a3d
000001e0: 9d43 71bd c763 0fbd bc97 983d 3059 5abd
000001f0: 6ea4 3fbd bbf2 f93c d226 f1bc baaa 823c
00000200: 0d83 2bbb 368c 31bd 5d7b 973d 2972 63b8
00000210: 3974 573d 30bd 8cbd 7c76 263c 787e 983d
00000220: 93fc 4ebc 7d0a c23c 74b0 42bd ebe5 48bd
00000230: fb56 2e3d 013c a6bd ec02 4c3d ca02 0d3b
00000240: a69f 29bd 9e8e b5bd a22f 603d 2978 a7bd
00000250: 91b6 84bd 6fed 443d dbdf 3b3d b921 803d
00000260: b83c 693d 7306 0e3d fc0a 9cbd d25f 9e3d
00000270: b8a1 8d3b 76f5 113c 1161 a93d d55f 993d
00000280: 291d 963c 8a2a 66bc 64ef 933d a013 70bd
00000290: 9aee b5bd 6d40 7f3d ecd0 463d 8644 38bd
000002a0: 17a6 7b3d 24fa a2bd 67c4 8f3d 7ff8 883d
000002b0: 4ac2 3e3d e199 b8bd f58e 57bd 4f39 bc3c
000002c0: 21ac 72bd e48b 2ebd 9a32 b6bd 42c0 50bd
000002d0: 8cdf 72ba 19e2 99bc 2f72 86bd 56f5 95bc
000002e0: c860 15bd 62b5 1cbc 5d9a e1bc 564f acbd
000002f0: 115a cc3b 82e5 0bbd 912d 73bd 6308 913c
00000300: f176 253d e5d6 fd3c db17 1dbd 09d5 f5bc
00000310: 2a20 85bd 4161 bbbc 1d88 ab3c ae83 343c
00000320: 099f 98bc e137 343d 0213 523d 9809 08bc
00000330: 1d0d 40bd bdbc 7abd 17e9 6abd be51 87bd
00000340: 4fdd 35bb 47ea 183d 29a4 7b3d 3e28 5fbc
00000350: d8ee 72bd f1e3 583b 1add 2cbd 5c91 8a3b
00000360: 642c 92bd 6fa6 3a3d caef 0dbd 0563 afbd
00000370: f967 973d e9bb 583c e946 6abd 0522 853c
00000380: 234d 88bd f698 30bd 87cb ad3c 5b54 87bd
00000390: be6a f13c 6004 b43b a2a9 223d 7b4a 06bd
000003a0: 425f 463d dede a2bd 8283 543d 78ea 863d
000003b0: 6010 123d f1dc d83c d9ad c4bc 9a60 b1bb
000003c0: bc01 63bd f49d 56bc 6ba8 4e3c 6ac7 79bd
000003d0: 3eff c03c 6088 16bd dac7 0c3d 6a99 793d
000003e0: 690e adbd fed3 6c3d 489c fbbc bc46 2cbc
000003f0: c586 4c3d 62c8 97bd 7cde bdbc a4f0 d0bc

bias f4 [24]
-0.08048358 0.022305902 0.0733009 -0.015204615 -0.065073416 0.017300226 0.02535965 0.06519581
0.05025361 0.039015986 0.035559654 -0.020892987 0.022660568 0.037328232 0.01942253 -0.07497388
0.018242078 -0.06281446 -0.013800554 0.006580471 0.041605327 -0.017642615 0.06493272 -0.050160892
00000000: 93d4 a4bd deba b63c c81e 963d c71c 79bc
00000010: 3645 85bd 34b9 8d3c 0abf cf3c 6185 853d
00000020: bbd6 4d3d 3acf 1f3d 00a7 113d c527 abbc
00000030: a8a2 b93c 7de5 183d ff1b 9f3c e88b 99bd
00000040: 6970 953c dea4 80bd b81b 62bc fea0 d73b
00000050: 596a 2a3d 3f87 90bc 72fb 843d 8275 4dbd

weight f4 [24, 24, 3, 3]
0.039388757 0.05939668 0.044778217 -0.012551096 0.0044836774 0.067946605 0.01481753 0.0153156705
0.025080094 -0.037047017 -0.06292374 -0.064083576 -0.025523648 0.004196174 -0.064256996 0.034065522
-0.026362475 -0.06338556 0.033712257 -0.011845502 0.062141653 0.004924806 0.023434926 -0.012609591
0.05401971 -0.030476209 0.009405183 0.052237112 -0.021668393 -0.027879959 -0.037167035 0.027032865
-0.040532395 -0.03613109 0.06552629 -0.034013886 -0.0019857748 0.0020407962 0.040029325 0.015770774
0.009858057 0.005583115 0.067454495 -0.001294788 0.039459273 0.016659398 -0.03957489 -0.04345533
0.05764964 -0.064758085 -0.0012368085 0.049618248 0.05738865 -0.0013029218 0.004864084 -0.06598035
-0.008391678 0.026637824 -0.037000258 0.04575469 0.0049473103 -0.022133276 -0.020445636 -0.06382302
0.028260043 0.012294025 -0.041596178 0.022284815 0.019552214 -0.006967399 0.03192602 0.016313646
-0.015004675 0.029749576 0.059429467 0.016180849 0.03699715 0.019522013 -0.017111573 -0.012285008
0.031277444 -0.030842131 0.026627824 0.0025042212 -0.030643499 0.033092644 0.06245936 0.0010869013
0.058580253 0.010809139 0.040910464 -0.0047094347 0.052648585 -0.06557653 -0.009498662 -0.0342307
0.041178152 0.012439986 -0.066178955 0.04325577 -0.020769639 0.027959263 0.05768746 0.009431632
0.05576325 -0.047711283 0.020190485 -0.014279947 0.06594405 -0.017368129 0.057697322 -0.030056302
0.017544623 -0.03174269 0.049830228 0.042428106 -0.0012586946 -0.03426501 0.045534827 0.017362151
0.0070972065 0.02946396 -0.032042727 0.022356268 -0.012105572 0.019393882 0.019584024 -0.045034666
-0.042110834 -0.05705122 -0.04578246 0.055074092 0.03291612 0.030942226 0.006803694 0.057089552
-0.016129747 0.022376677 -0.010674373 0.033098355 -0.027668012 0.018698892 -0.045932386 -0.06350215
-0.06148164 -0.056026906 0.013641831 0.02227177 -0.018567907 0.047100794 0.036046356 -0.060688782
0.026332602 0.0024565784 -0.017743748 -0.038462777 -0.050241392 0.0344416 0.03200887 -0.02893941
0.043753248 0.043684907 0.013309227 0.063229725 0.009780353 0.024526944 0.03745677 -0.06870274
-0.066618375 -0.055156738 -0.043663625 0.0592851 0.018208336 -0.02574003 0.020487215 0.035179157
-0.011053961 0.04216885 0.020682098 -0.00083045353 -0.03983088 -0.022726603 -0.02599831 -0.019793728
0.02471212 0.006697745 -0.015305774 -0.01776072 0.028986132 0.022872804 0.006753063 0.008135943
-0.027598271 0.009686681 -0.016510798 -0.025925236 -0.012466512 0.06237166 -0.05646641 -0.033860005
-0.027486954 0.043343555 -0.04809674 -0.004310844 0.031080797 0.06550681 0.049501363 -0.054855693
0.06565514 0.007203502 0.0072567947 0.061021786 0.031153237 -0.043487344 0.038051553 -0.039369907
0.020325951 0.03685899 0.03929892 -0.022698918 0.025045767 0.0386338 -0.028040614 -0.044729114
0.015119128 0.023834588 -0.006841328 0.07328699 -6.672347e-05 -0.03558059 -0.024753878 0.0077748676
0.008321539 0.008295615 0.025439423 0.032524172 0.062083274 -0.05850588 -0.06729096 -0.00784313
-0.035756484 0.029121868 -0.011570743 0.0102773765 0.031228377 0.018621784 -0.022092244 -0.015807047
0.015010498 0.041527648 0.031712607 0.06294244 0.01390671 0.0625193 0.06650701 0.044055212
00000000: 1b56 213d ef49 733d 5d69 373d 1da3 4dbc
00000010: d0eb 923b 9727 8b3d 3ac5 723c 94ee 7a3c
00000020: c574 cd3c 9dbe 17bd 29de 80bd 403e 83bd
00000030: f816 d1bc 0f80 893b 2c99 83bd 4a88 0b3d
00000040: 1ef6 d7bc 4ad0 81bd dd15 0a3d a313 42bc
00000050: 3f88 7e3d 4460 a13b 9afa bf3c 7598 4ebc
00000060: c543 5d3d 3ea9 f9bc 3218 1a3c 95f6 553d
00000070: ea81 b1bc 8364 e4bc 763c 18bd 0774 dd3c
00000080: 4c05 26bd 32fe 13bd a632 863d 2552 0bbd
00000090: c623 02bb e1be 053b caf5 233d b631 813c
000000a0: b083 213c 90f2 b63b 9525 8a3d e0b5 a9ba
000000b0: 0ca0 213d 4a79 883c 4819 22bd 37fe 31bd
000000c0: 0722 6c3d e39f 84bd 681c a2ba 813c 4b3d
000000d0: 5c10 6b3d cdc6 aaba e562 9f3b b520 87bd
000000e0: 407d 09bc 9137 da3c 958d 17bd 4569 3b3d
000000f0: 0c1d a23b d850 b5bc 9b7d a7bc a5b5 82bd
00000100: 9b81 e73c e16c 493c c160 2abd a58e b63c
00000110: f72b a03c c74e e4bb dcc4 023d 32a4 853c
00000120: 2bd6 75bc 62b5 f33c 506c 733d b38d 843c
00000130: 538a 173d a1ec 9f3c 922d 8cbc 0f47 49bc
00000140: c71c 003d a3a8 fcbc 9822 da3c dc1d 243b
00000150: 1308 fbbc 278c 073d 63d5 7f3d 5b76 8e3a
00000160: d9f1 6f3d d118 313c bb91 273d 9a51 9abb
00000170: 0ba6 573d fd4c 86bd 47a0 1bbc 7e35 0cbd
00000180: 6caa 283d 15d1 4b3c d588 87bd f62c 313d
00000190: 1725 aabc d30a e53c b049 6c3d 2287 1a3c
000001a0: 0168 643d e86c 43bd 8466 a53c 70f6 69bc
000001b0: ad0d 873d 9b47 8ebc 0754 6c3d a238 f6bc
000001c0: beb9 8f3c 9f04 02bd c81a 4c3d 18c9 2d3d
000001d0: c8fa a4ba 7859 0cbd ba82 3a3d 123b 8e3c
000001e0: af8f e83b 675e f13c 3c3f 03bd 7e24 b73c
000001f0: 7356 46bc ebdf 9e3c ad6e a03c 4576 38bd
00000200: 697c 2cbd 8aae 69bd 6486 3bbd 5f95 613d
00000210: 0ed3 063d 8d7a fd3c 86f1 de3b bcd6 693d
00000220: 8822 84bc 4b4f b73c 91e3 2ebc 2492 073d
00000230: 07a8 e2bc 6b2e 993c 9923 3cbd 6a0d 82bd
00000240: 2cd4 7bbd 787c 65bd fd81 5f3c 4973 b63c
00000250: b91b 98bc c3ec 403d 58a5 133d cd94 78bd
00000260: 78b7 d73c 8cfe 203b 565b 91bc 258b 1dbd
00000270: ebc9 4dbd a312 0d3d bc1b 033d 5712 edbc
00000280: 9b36 333d f2ee 323d f20e 5a3c 967e 813d
00000290: c63d 203c bbec c83c 456c 193d 06b4 8cbd
000002a0: 376f 88bd 08ec 61bd a1d8 32bd efd4 723d
000002b0: a629 953c c1dc d2bc ced4 a73c 0518 103d
000002c0: ac1b 35bc 3eb9 2c3d 816d a93c cbb2 59ba
000002d0: b425 23bd 242d babc 68fa d4bc 7526 a2bc
000002e0: 1271 ca3c c278 db3b 12c5 7abc ee7e 91bc
000002f0: 5374 ed3c bf5f bb3c cc48 dd3b 9e4c 053c
00000300: c515 e2bc e3b4 1e3c a741 87bc 2961 d4bc
00000310: 5740 4cbc 6d79 7f3d 5349 67bd cab0 0abd
00000320: 522c e1bc 0389 313d 1601 45bd fb41 8dbb
00000330: 289d fe3c 6f28 863d f1c1 4a3d 5db0 60bd
00000340: 3476 863d 5b0b ec3b 68ca ed3b fbf1 793d
00000350: 1335 ff3c c91f 32bd f2db 1b3d 5742 21bd
00000360: 9c82 a63c 74f9 163d e8f7 203d 15f3 b9bc
00000370: c82c cd3c 7a3e 1e3d 6eb5 e5bc e035 37bd
00000380: 38b6 773c c140 c33c 382d e0bb 7d17 963d
00000390: e4ed 8bb8 f4bc 11bd a5c8 cabc 51c4 fe3b
000003a0: 1057 083c 55ea 073c 5666 d03c 1138 053d
000003b0: 084b 7e3d dda3 6fbd d8cf 89bd 7980 00bc
000003c0: 6475 12bd fc90 ee3c 3793 3dbc 7162 283c
000003d0: a7d2 ff3c b68c 983c cbfa b4bc c87d 81bc
000003e0: 98ee 753c e518 2a3d 14e5 013d f7e7 803d
000003f0: f8d8 633c 1e0a 803d d434 883d 3d73 343d

bias f4 [24]
-0.005252909 -0.00017484993 -0.025584524 -0.0053274343 0.00039326417 0.05552567 0.02569991 0.03965037
-0.015336597 0.006658456 -0.032740418 0.00718551 -0.012659923 -0.0026489864 -0.013876727 0.045209248
0.041362923 -0.05134783 0.010427841 -0.018063784 0.055640645 -0.04380556 0.012083365 0.019896545
00000000: 9820 acbb ec57 37b9 a396 d1bc c291 aebb
00000010: 062f ce39 e36e 633d 9e88 d23c 6d68 223d
00000020: 5a46 7bbc 2d2f da3b d11a 06bd 6d74 eb3b
00000030: 916b 4fbc 9e9a 2dbb 365b 63bc 552d 393d
00000040: 2b6c 293d 1a52 52bd 89d9 2a3c 80fa 93bc
00000050: 72e7 633d 756d 33bd 4ef9 453c 14fe a23c

weight f4 [40, 24, 3, 3]
0.060415104 0.015529179 0.05594834 0.018809699 -0.018403335 0.056470945 -0.060182028 -0.052135337
-0.03942778 0.032424085 -0.05779159 -0.061687704 0.052807815 -0.012031341 -0.06127507 0.004343106
0.051800184 0.027985238 0.0061690775 -0.015436071 0.012851387 0.013885327 -0.04457658 0.048706274
-0.011415509 0.05715774 0.050902303 0.06328713 -0.069692634 0.058938593 -0.063074514 -0.026799213
0.00978475 0.0033922368 -0.008297597 -0.06199982 0.031870168 -0.046336997 -0.05362318 -0.014840213
-0.010938715 0.029259788 -0.03566308 -0.060167048 -0.031700607 -0.006246484 0.0063585434 -0.05717209
-0.038029768 0.06106353 0.049138416 -0.011895252 0.01271842 -0.055670172 -0.05417375 -0.022770884
-0.021155968 0.0075289276 -0.015771871 0.056286834 -0.038317967 0.05799466 -0.045621026 -0.067564465
0.021506853 -0.006598894 -0.038328804 -0.06703917 -0.021704158 0.031510808 0.042551547 -0.03592205
-0.040058255 -0.053741083 -0.02955622 -0.04119731 0.025242176 0.050818153 -0.05856677 -0.01035913
-0.034306664 -0.0034281088 0.012784775 -0.04404171 0.03217874 0.0051137763 0.03720607 -0.02884235
-0.024873216 -0.059221383 0.01770178 -0.03335438 0.060806174 0.06461959 -0.06102808 -0.035278354
-0.058070745 0.009163569 0.014390416 -0.019443914 -0.01509799 -0.056936227 0.00885342 -0.056413114
0.027183942 -0.05656685 0.021483853 -0.027885064 -0.031770658 -0.024784548 0.05181395 0.018419834
-0.048783198 -0.026486896 -0.058117513 0.003570254 -0.009355298 -0.041925266 0.008590317 -0.008468633
0.06539653 0.0066561783 -0.0007184015 -0.03420524 0.05279337 0.05657268 0.034808036 0.05325184
-0.041658472 0.029202264 0.0026060976 -0.057603136 0.022765677 -0.0074105337 0.042819772 -0.009822386
-0.0164226 0.0036752103 0.042398334 0.040730342 0.024759807 0.038497888 -0.06843942 0.03790999
-0.01208076 0.00730495 0.013628428 0.00067977386 -0.025668565 -0.05536792 -0.041740224 0.06262901
-0.022631085 0.036085732 -0.065799125 -0.04346103 -0.053345285 -0.030556554 -0.052363627 0.015351217
0.04517225 -0.008824733 -0.0600958 0.02085472 0.018836329 -0.012398147 -0.06624688 -0.044853054
-0.05826395 -0.058788475 -0.007868075 -0.03303812 -0.014595532 -0.005214644 -0.057440396 0.0053387457
0.016956756 -0.014494762 0.033752073 -0.024290789 0.0153025035 0.03924407 0.010218564 0.03831478
-0.040469952 -0.0117268935 0.031353164 -0.032006152 0.0035384588 -0.06452634 -0.0551705 0.033119854
0.026553849 0.007049525 0.017628165 -0.0035514424 -0.011633312 -0.054740638 0.04988612 -0.0303364
0.033115905 -0.048578113 -0.0010755801 0.055894487 -0.047606677 0.06275355 0.014471539 0.03278487
0.011940124 -0.0079213055 0.007516327 0.038547236 -0.028295698 0.014168197 0.061359756 -0.013018938
-0.059332307 0.042985193 -0.058586575 0.03625825 0.06382078 0.018741902 0.0033278286 -0.0140024945
-0.007428575 -0.03626295 0.028117953 -0.008946552 0.024424342 -0.05055586 -0.04079872 -0.05972985
0.020979762 -0.042935137 0.030698966 0.0051453654 0.031044336 0.062160764 -0.048871115 -0.04761149
-0.026834276 0.030747898 -0.04405537 0.06722054 0.011202292 -0.005688007 -0.043404005 0.03596073
-0.03790647 -0.03793564 0.045741666 0.004147008 -0.015200741 0.0182726 -0.0071584056 -0.036791135
00000000: d475 773d 196e 7e3c 162a 653d cc16 9a3c
00000010: 97c2 96bc 144e 673d 6e81 76bd dd8b 55bd
00000020: 067f 21bd 1ecf 043d e0b6 6cbd 3fac 7cbd
00000030: 024d 583d 1a1f 45bc 91fb 7abd 9d50 8e3b
00000040: 6e2c 543d 4c41 e53c f925 ca3b 93e7 7cbc
00000050: a08e 523c 487f 633c ef95 36bd 3b80 473d
00000060: 1d08 3bbc 3c1e 6a3d ef7e 503d af9c 813d
00000070: 03bb 8ebd 9869 713d 362d 81bd 068a dbbc
00000080: 3750 203c 4a50 5e3b a5f2 07bc 86f3 7dbd
00000090: 4b8a 023d ddcb 3dbd fba3 5bbd 5d24 73bc
000000a0: 4c38 33bc 39b2 ef3c 7313 12bd b971 76bd
000000b0: 7fd8 01bd 4eaf ccbb 545b d03b 482d 6abd
000000c0: 1ac5 1bbd c11d 7a3d 5d45 493d 4ee4 42bc
000000d0: eb60 503c 6806 64bd 4be5 5dbd 018a babc
000000e0: 484f adbc 39b5 f63b 0334 81bc 068d 663d
000000f0: 4df3 1cbd cf8b 6d3d 1ddd 3abd 3d5f 8abd
00000100: 242f b03c 893b d8bb aafe 1cbd d54b 89bd
00000110: ebcc b1bc 7a11 013d 884a 2e3d 0023 13bd
00000120: 2014 24bd 9c1f 5cbd e31f f2bc 83be 28bd
00000130: aec8 ce3c b226 503d b6e3 6fbd 57b9 29bc
00000140: 2585 0cbd 1faa 60bb 3c77 513c 1565 34bd
00000150: dbcd 033d 7791 a73b 6465 183d cb46 ecbc
00000160: eac2 cbbc 1f92 72bd 5303 913c 9a9e 08bd
00000170: e50f 793d 4757 843d 94f8 79bd 0980 10bd
00000180: 97db 6dbd cb22 163c c8c5 6b3c d848 9fbc
00000190: 8f5d 77bc f635 69bd ef0d 113c 7011 67bd
000001a0: dcb0 de3c a4b2 67bd e8fe af3c 386f e4bc
000001b0: f321 02bd f708 cbbc dd3a 543d 31e5 963c
000001c0: e4d0 47bd 0cfb d8bc a10c 6ebd ecfa 693b
000001d0: f746 19bc d4b9 2bbd 67be 0c3c 05c0 0abc
000001e0: 9eee 853d 121c da3b 1c53 3cba cb1a 0cbd
000001f0: dc3d 583d c1b8 673d df92 0e3d 9a1e 5a3d
00000200: 13a2 2abd 9639 ef3c 10cb 2a3b 44f1 6bbd
00000210: 167f ba3c 10d4 f2bb c963 2f3d 13ee 20bc
00000220: b088 86bc ccdb 703b e0a9 2d3d dcd4 263d
00000230: 14d5 ca3c f6af 1d3d f729 8cbd 8147 1b3d
00000240: 61ee 45bc 5d5e ef3b c549 5f3c da32 323a
00000250: e246 d2bc 79c9 62bd ccf7 2abd a343 803d
00000260: d364 b9bc a2ce 133d b1c1 86bd 3104 32bd
00000270: 9680 5abd bd51 fabc 3e7b 56bd ac83 7b3c
00000280: 8a06 393d 9d95 10bc 0327 76bd 85d7 aa3c
00000290: a54e 9a3c 9921 4bbc 72ac 87bd d6b7 37bd
000002a0: 2ea6 6ebd 2fcc 70bd 19e9 00bc fb52 07bd
000002b0: 1922 6fbc 9bdf aabb 9f46 6bbd a5f0 ae3b
000002c0: e5e8 8a3c 707b 6dbc 9d3f 0a3d 7afd c6bc
000002d0: 5ab7 7a3c 64be 203d c46b 273c f5ef 1c3d
000002e0: d2c3 25bd 2822 40bc 2d6c 003d e218 03bd
000002f0: 7de5 673b 6326 84bd 76fa 61bd afa8 073d
00000300: 7587 d93c b4ff e63b f168 903c 51bf 68bb
00000310: a699 3ebc b837 60bd 6355 4c3d 0b84 f8bc
00000320: 8ba4 073d d8f9 46bd 7bfa 8cba 9ef1 643d
00000330: 38ff 42bd ef84 803d 091a 6d3c 6e49 063d
00000340: 83a0 433c 5dc8 01bc 854b f63b b5e3 1d3d
00000350: 61cc e7bc ba21 683c 5e54 7b3d 624d 55bc
00000360: 6f06 73bd 3e11 303d 7af8 6fbd 8883 143d
00000370: 78b4 823d 9e88 993c b317 5a3b b86a 65bc
00000380: 676b f3bb 7688 14bd 9f57 e63c 8f94 12bc
00000390: 8f15 c83c a913 4fbd 8f1c 27bd 4aa7 74bd
000003a0: c0dd ab3c c1dc 2fbd 667c fb3c 749a a83b
000003b0: b150 fe3c 499c 7e3d 142d 48bd 4404 43bd
000003c0: 8ed3 dbbc 04e3 fb3c 6773 34bd ecaa 893d
000003d0: d189 373c 7662 babb 66c8 31bd 8f4b 133d
000003e0: d143 1bbd 6762 1bbd 9d5b 3b3d a0e3 873b
000003f0: 870c 79bc 6bb0 953c 0f91 eabb 4db2 16bd

bias f4 [40]
-0.039469097 -0.04427679 -0.06847329 0.002464335 0.0671668 0.072494246 0.018647991 0.05830378
-0.04737925 -0.025946314 -0.028401097 0.02335203 0.07028816 0.020393902 -0.055593774 0.06946114
0.04951413 -0.010197619 -0.018281134 0.06264485 -0.036032777 0.07282714 -0.02314939 0.028525062
-0.056514863 0.035409726 -0.021164069 -0.045250345 -0.066205435 -0.0026886798 -0.04010758 -0.0043747877
-0.04991714 -0.04315265 0.04427613 -0.0671173 -0.02379801 0.006672289 -0.065087065 0.06645217
00000000: 59aa 21bd 945b 35bd b93b 8cbd ae80 213b
00000010: bf8e 893d dd77 943d acc3 983c f2cf 6e3d
00000020: bf10 42bd 5d8d d4bc 6ba9 e8bc c24c bf3c
00000030: 3df3 8f3d 1d11 a73c 4cb6 63bd a441 8e3d
00000040: 54cf 4a3d ea13 27bc 51c2 95bc f14b 803d
00000050: 1b97 13bd 6526 953d caa3 bdbc 64ad e93c
00000060: 217c 67bd ca09 113d 4560 adbc 6d58 39bd
00000070: b796 87bd 9034 30bb d947 24bd 615a 8fbb
00000080: ea75 4cbd d5c0 30bd e35a 353d cc74 89bd
00000090: 0bf4 c2bc 38a3 da3b 5e4c 85bd 1318 883d

weight f4 [80, 40, 3, 3]
0.02280566 -0.021561401 -0.0033765952 -0.007224718 0.04122733 -0.027227122 0.016297799 0.018025715
0.0131490035 0.0086527495 -0.019480044 0.039561618 0.020712791 -0.015817909 0.029172285 0.035609007
0.028956177 -0.044381868 -0.0012909292 -0.015047834 -0.0023615467 -0.0069954623 -0.0041124537 -0.037968
0.043780547 0.010747452 -0.0259448 0.0086761555 0.013326166 -0.0010044017 -0.039320488 -0.036915697
-0.014814738 0.029614896 -0.0052519003 0.025051443 0.057543457 -0.0356986 0.0376335 0.056236096
-0.037305906 0.045982864 0.030606674 -0.011421642 -0.021243332 -0.027731959 0.05812427 0.018508924
0.010817639 -0.0063031605 0.012787631 0.048788425 0.056608155 -0.043473583 -0.04674129 0.030507749
-0.009063493 -0.008207232 0.0366218 0.0098727895 0.04009876 0.007738018 0.041310146 -0.039013386
0.019664448 0.039257817 0.05402898 0.030627593 -0.014290965 -0.046232697 -0.045921165 0.050251845
-0.0070316545 -0.020787826 -0.025874838 -0.023275716 0.041675027 0.01862564 0.0035159087 0.012305159
0.04765264 -0.030610451 -0.015905878 -0.0077210427 0.006366479 -0.021174062 -0.015242806 0.04793368
-0.048478644 -0.018307718 0.0061393697 -0.012512347 0.028073989 -0.054289136 -0.044191208 0.015940914
0.005172018 -0.017857915 -0.03094505 0.054310534 0.0035987685 0.04678473 0.033780094 0.01602407
-0.027266644 -0.040834837 0.0061189057 0.01221653 -0.007252038 0.033489946 0.008182728 0.05427463
-0.024099128 -0.018219957 -0.03861059 -0.015287955 -0.032977067 -0.019246787 0.056065723 -0.015717413
0.030375615 -0.023523979 -0.0135811055 0.0027763492 -0.0017558496 0.0062792483 0.009828347 0.02419244
-0.009103181 -0.027183143 0.031982757 0.013596241 -0.010581216 0.036809377 0.020148601 0.052018534
0.05133844 0.05745314 -0.031646453 0.018546395 -0.038275372 -0.0055915928 0.057409655 0.014441031
-0.001077542 0.035266563 0.033928912 -0.008380291 0.0036784892 0.003642831 0.057402972 -0.006765478
0.041660756 0.01760826 -0.0158312 0.021307867 -0.047644634 0.0076539996 -0.047011577 0.02496228
0.032369263 0.025765544 0.02421936 -0.008122657 0.028650004 -0.002287832 0.008073989 -0.049838345
-0.02408332 -0.018890662 0.013222958 0.0109223835 -3.158112e-05 -0.045923136 0.058183234 -0.04032673
-0.009844881 0.0012241143 -0.039064884 -0.00631915 -0.04493136 -0.039624628 0.041999895 0.040397577
-0.040624797 0.036851417 -0.016454158 -0.0054568383 0.022521317 0.047740594 0.020358998 0.011326604
-0.04314847 -0.029951952 0.058102757 0.008659327 -0.027479447 0.03758161 -0.012991969 -0.034652457
0.013736646 -0.021968255 -0.025318667 0.044255275 -0.03225957 -0.028764883 0.013953983 -0.0140604405
-0.032079287 0.011591196 -0.020450935 -0.016256394 0.045881577 0.030972512 -0.0032931124 -0.0008149917
-0.036796704 -0.028820641 0.008665723 0.032521296 -0.009361505 0.014773803 -0.009913119 0.019159773
0.0048011118 -0.04312146 0.028110694 -0.029255351 -0.0029876013 0.0031773825 0.020552184 -0.019520454
0.049870145 -0.0027692015 0.024511805 0.03049567 0.024308667 -0.01154608 0.015378966 0.021400249
0.006043583 0.0405524 0.009498241 -0.024653068 -0.014933493 0.0023054155 0.0010583258 0.03353655
-0.0055767926 -0.020920733 -0.023696112 0.006032684 -0.009540739 -0.03225906 0.015033814 -0.00080754934
00000000: efd2 ba3c 89a1 b0bc de49 5dbb 54bd ecbb
00000010: fddd 283d 6a0b dfbc f682 853c aaaa 933c
00000020: eb6e 573c 43c4 0d3c 9d94 9fbc 5d0b 223d
00000030: dfad a93c 8f94 81bc b7fa ee3c c0da 113d
00000040: 8135 ed3c c3c9 35bd 6534 a9ba 318b 76bc
00000050: 2ec4 1abb 313a e5bb c3c1 86bb 5584 1bbd
00000060: 3b53 333d 1516 303c 308a d4bc 6f26 0e3c
00000070: fe55 5a3c 21a6 83ba 850e 21bd ea34 17bd
00000080: 84b9 72bc f09a f23c 2218 acbb af38 cd3c
00000090: b0b2 6b3d b238 12bd 9625 1a3d d257 663d
000000a0: 14ce 18bd 8758 3c3d d9ba fa3c d721 3bbc
000000b0: 7f06 aebc 222e e3bc b713 6e3d 07a0 973c
000000c0: 773c 313c be8a cebb 3683 513c 5fd6 473d
000000d0: f4dd 673d 5b11 32bd cb73 3fbd 63eb f93c
000000e0: 0c7f 14bc a077 06bc be00 163d 7bc1 213c
000000f0: 993e 243d 338f fd3b d434 293d 80cc 1fbd
00000100: 5617 a13c cecc 203d 7e4d 5d3d b8e6 fa3c
00000110: a724 6abc 7f5e 3dbd d517 3cbd e1d4 4d3d
00000120: cb69 e6bb 3b4b aabc 78f7 d3bc b7ac bebc
00000130: 6fb3 2a3d cc94 983c 296b 663b 949b 493c
00000140: 6a2f 433d c5c2 fabc 0b4d 82bc cd00 fdbb
00000150: e69d d03b 3a75 adbc f6bc 79bc 1b56 443d
00000160: 8b91 46bd 11fa 95bc c42c c93b 9600 4dbc
00000170: 6cfb e53c 495e 5ebd d701 35bd 8596 823c
00000180: 087a a93b c34a 92bc 7980 fdbc b974 5e3d
00000190: 51d9 6b3b 58a1 3f3d ff5c 0a3d e944 833c
000001a0: 4c5e dfbc 6e42 27bd 1a81 c83b d727 483c
000001b0: 81a2 edbb c12c 093d d910 063c 134f 5e3d
000001c0: 896b c5bc 0542 95bc 2326 1ebd 557a 7abc
000001d0: f612 07bd 70ab 9dbc 2ca5 653d cec1 80bc
000001e0: 48d6 f83c 5cb5 c0bc 4983 5ebc 69f3 353b
000001f0: 8924 e6ba 27c2 cd3b 1307 213c 392f c63c
00000200: 8225 15bc 2faf debc 5a00 033d c5c2 5e3c
00000210: d65c 2dbc 6ec5 163d ae0e a53c 6311 553d
00000220: 4248 523d fc53 6b3d b69f 01bd 9cee 973c
00000230: a3c6 1cbd ae39 b7bb 6326 6b3d 139a 6c3c
00000240: 4f3c 8dba ac73 103d 0bf9 0a3d 7d4d 09bc
00000250: cf12 713b 90bc 6e3b 611f 6b3d f1b0 ddbb
00000260: 78a4 2a3d 333f 903c 6fb0 81bc d68d ae3c
00000270: 0527 43bd 67ce fa3b 368f 40bd b27d cc3c
00000280: a295 043d 4312 d33c ae67 c63c e514 05bc
00000290: 6ab3 ea3c 74ef 15bb c448 043c 4b23 4cbd
000002a0: 624a c5bc 97c0 9abc 1ba5 583c ccf3 323c
000002b0: f875 04b8 e619 3cbd 8b51 6e3d a42d 25bd
000002c0: 6c4c 21bc 7672 a03a 8002 20bd df10 cfbb
000002d0: f209 38bd 6f4d 22bd 1508 2c3d ee77 253d
000002e0: 3066 26bd 83f1 163d dfca 86bc 47cf b2bb
000002f0: a07e b83c a48b 433d eac7 a63c 3893 393c
00000300: 73bc 30bd cc5d f5bc 28fd 6d3d dadf 0d3c
00000310: 941c e1bc 2def 193d 44dc 54bc bcef 0dbd
00000320: ab0f 613c c5f6 b3bc 1869 cfbc 0545 353d
00000330: 9c22 04bd 55a4 ebbc 3f9f 643c c35d 66bc
00000340: 9265 03bd 00e9 3d3c b888 a7bc 212c 85bc
00000350: 52ee 3b3d 11ba fd3c 42d1 57bb 2ba5 55ba
00000360: 24b8 16bd 4419 ecbc adfa 0d3c 0d35 053d
00000370: ff60 19bc d20d 723c a26a 22bc f5f4 9c3c
00000380: a552 9d3b 21a0 30bd 6648 e63c eba8 efbc
00000390: a2cb 43bb a23b 503b 0e5d a83c 5ce9 9fbc
000003a0: a344 4c3d 7e7b 35bb fbcc c83c 0ed2 f93c
000003b0: f822 c73c c52b 3dbc 0ff8 7b3c 934f af3c
000003c0: 4009 c63b 461a 263d 839e 1b3c 3bf5 c9bc
000003d0: 9cab 74bc 7416 173b 85b7 8a3a 9f5d 093d
000003e0: 87bd b6bb f561 abbc 591e c2bc d2ad c53b
000003f0: c250 1cbc 1322 04bd 6350 763c b8b1 53ba

bias f4 [80]
0.042850647 0.036475223 0.021543304 0.010355046 -0.029521521 -0.0007980046 0.014450144 0.02579014
-0.013657236 -0.026499307 0.04657926 0.020512357 -0.0117043285 -0.03430077 -0.0018830736 -0.038729567
-0.053364474 0.03271051 -0.006102116 0.016992386 0.055673398 0.042667594 -0.010512337 0.012113593
0.037976272 -0.02022338 0.030577175 0.023487002 -0.027922092 -0.020962493 -0.033065412 0.018894143
-0.033563886 0.033343595 -0.016440455 0.041932266 0.017323455 -0.0502304 -0.019066088 0.0140773505
0.0580287 0.010079249 -0.0023938753 0.05094303 -0.0055333446 -0.038443662 -0.019429909 0.024762485
0.044276047 0.05110664 0.025923641 0.04441874 -0.0013566543 0.0023230342 0.05195697 -0.048644267
0.029763155 -0.011642749 -0.052083123 -0.012061365 -0.020507231 -0.021093547 0.019464906 0.052276824
0.05499029 0.037067883 -0.033485256 0.0339746 0.014916511 -0.017403122 0.017562617 0.037761085
0.030660452 -0.034593172 -0.006297432 0.0369118 -0.06010585 -0.021980483 -0.054838136 0.033896524
00000000: 2984 2f3d 0b67 153d 957b b03c 36a8 293c
00000010: 1ed7 f1bc 2f31 51ba 4cc0 6c3c d845 d33c
00000020: 99c2 5fbc 1315 d9bc e5c9 3e3d 8809 a83c
00000030: 83c3 3fbc f77e 0cbd 77d1 f6ba e5a2 1ebd
00000040: b594 5abd 75fb 053d 42f4 c7bb 9e33 8b3c
00000050: ca09 643d 37c4 2e3d f03b 2cbc 1778 463c
00000060: 028d 1b3d 80ab a5bc fc7c fa3c d067 c03c
00000070: dfbc e4bc 89b9 abbc 996f 07bd e4c7 9a3c
00000080: 497a 09bd 4b93 083d 22ae 86bc 2bc1 2b3d
00000090: ebe9 8d3c 64be 4dbd 7c30 9cbc b0a4 663c
000000a0: 81af 6d3d 6f23 253c 90e2 1cbb a3a9 503d
000000b0: 0f51 b5bb 1a77 1dbd 792b 9fbc b2da ca3c
000000c0: cd5a 353d 3255 513d d15d d43c 6df0 353d
000000d0: c4d1 b1ba 0c3e 183b d5d0 543d 363f 47bd
000000e0: dcd1 f33c 3bc1 3ebc 1d55 55bd 089d 45bc
000000f0: c8fe a7bc 60cc acbc de74 9f3c 3920 563d
00000100: 803d 613d 7ed4 173d d627 09bd f328 0b3d
00000110: 6264 743c fe90 8ebc 7adf 8f3c 5eab 1a3d
00000120: a12b fb3c 92b1 0dbd b05a cebb d430 173d
00000130: 8d31 76bd 6a10 b4bc f49d 60bd 15d7 0a3d
