Tensorflow_pytorch/mnist/n_net_param.pkl (torch_old, 116966 bytes, 6 tensors)

conv1.0.weight f4 [16, 1, 5, 5]
0	0x3e6f0365	0.23341139
1	0x3e601d16	0.21886095
2	0x3e6d447b	0.23170654
3	0x3e1c048c	0.1523611
4	0x3e9c65f5	0.30546537
5	0xbd611269	-0.054949198
6	0x3e81600b	0.25268587
7	0x3e279e3e	0.16368958
8	0x3dbb8c45	0.09157614
9	0x3e0c9544	0.13728815
10	0x3cb3adf5	0.021933535
11	0xbdfbb348	-0.122900546
12	0x3dcf5b0d	0.101247884
13	0xbd465f44	-0.048430696
14	0x3d84829f	0.064702265
15	0xbe8cbc7a	-0.27487546
16	0xbdc81e8b	-0.097714506
17	0xbe35c32d	-0.17750235
18	0xbd3375b5	-0.043813426
19	0xbb93c0bc	-0.0045090597
20	0xbeab5f33	-0.3347107
21	0xbe01ff77	-0.12695108
22	0xbea4dc94	-0.32199538
23	0xbddbede9	-0.10738737
24	0xbd79c52c	-0.060979053
25	0xbe3c6237	-0.18396841
26	0xbe864cbc	-0.2623042
27	0xbbd46a43	-0.006482394
28	0xbe585c71	-0.21129014
29	0xbd2b9021	-0.0418855
30	0x3caac38c	0.020845197
31	0xbdd4ed42	-0.10396816
32	0xbe9e4f11	-0.30919698
33	0xbc3a8157	-0.011383376
34	0xbe5116f5	-0.20418914
35	0xbe294e2c	-0.16533726
36	0xbdf026e9	-0.117261715
37	0xbdb3c7d5	-0.08778349
38	0xbe1939d3	-0.14963464
39	0xbd1d23d4	-0.038364246
40	0x3cb45dbb	0.02201735
41	0x3c56dd3e	0.013114272
42	0x3dffe3fc	0.124946564
43	0x3db44d2f	0.08803784
44	0x3e94c120	0.29053593
45	0x3e629d1a	0.22130242
46	0x3d6ec9b8	0.058297843
47	0x3e938e1e	0.28819364
48	0x3e439663	0.19100337
49	0x3d9edc7f	0.077569
50	0x3d56012c	0.05224721
51	0xbe38fe03	-0.18065648
52	0x3deadf8d	0.1146842
53	0x3dd0a0fd	0.10186956
54	0x3e2e562e	0.17025062
55	0xbe0642a0	-0.13111353
56	0xbe40cf63	-0.18829112
57	0x3e8d58d2	0.27606827
58	0x3e1ebc0c	0.15501422
59	0x3d931072	0.07180871
60	0xbe874c59	-0.26425436
61	0x3cd1615c	0.02555912
62	0x3e8cde79	0.27513483
63	0x3e16dbf8	0.14732349
64	0x3c33a631	0.010964916
65	0xbe02ddd8	-0.12779939
66	0x3d4936c7	0.049124505
67	0x3d8d866d	0.06910405
68	0xbdadbbd9	-0.08483095
69	0x3e3e3490	0.18574739
70	0xbdb38fdd	-0.08767674
71	0xbe01ed25	-0.1268812
72	0x3e32fb8a	0.17478767
73	0x3e1af67d	0.1513309
74	0x3e0f9728	0.14022505
75	0x3e5049da	0.20340672
76	0x3e24917f	0.16071127
77	0xbcd87256	-0.026421707
78	0xbde545de	-0.11194967
79	0x3d66a148	0.056306154
80	0xbce11863	-0.027477449
81	0x3e800f1a	0.25011522
82	0xbd9a6772	-0.07539262
83	0xbba685ef	-0.005081884
84	0xbbee2fd2	-0.007268884
85	0x3e6899a7	0.22714864
86	0xbc87358b	-0.016505023
87	0x3e810b6b	0.25204024
88	0x3e61b4e1	0.22041656
89	0x3e449093	0.19195776
90	0x3cf2145f	0.02955073
91	0x3dc805c3	0.09766724
92	0x3d91d017	0.07119768
93	0x3e4ef80d	0.20211811
94	0x3e325673	0.1741579
95	0xbe1aaec6	-0.15105733
96	0xbe3b582b	-0.18295352
97	0xbdd0b970	-0.101916194
98	0x3d6b6793	0.057471823
99	0x3e775864	0.24154812
100	0xbd152f1d	-0.036421884
101	0x3be6e164	0.0070459116
102	0x3e54524c	0.20734519
103	0xbe24163c	-0.16024107
104	0xbbcadcd5	-0.006190876
105	0x3e82717d	0.2547721
106	0x3e95294a	0.29133064
107	0x3e791d93	0.24327688
108	0xbd39298a	-0.04520563
109	0xbdf79eb0	-0.12090814
110	0xbd299578	-0.04140231
111	0xbdab1caf	-0.0835508
112	0xbdf4f064	-0.119599134
113	0x3ce89fdb	0.028396538
114	0xbde3fae1	-0.11131836
115	0xbdc3fcca	-0.095697
116	0x3d9b0991	0.07570184
117	0x3e0ff14c	0.14056891
118	0xbd3a5636	-0.045492373
119	0xbe00bc3d	-0.12571807
120	0xbe029796	-0.12753138
121	0x3bf38dec	0.00743269
122	0x3e633a41	0.22190191
123	0x3e8f6e04	0.28013623
124	0x3e7667b1	0.24062993
125	0x3e714f7f	0.23565482
126	0x3e9d8d17	0.30771706
127	0x3e3423fe	0.17591855
128	0x3d1598f7	0.03652283
129	0x3ebf8bef	0.37411448
130	0x3d3e9528	0.046528965
131	0x3e73f73d	0.23824783
132	0x3e74dee8	0.23913157
133	0x3e278d8f	0.16362594
134	0x3c138315	0.00900342
135	0x3e8bd254	0.27308905
136	0xbe092c89	-0.13395895
137	0xbce06420	-0.027391493
138	0xbd81a56f	-0.06330382
139	0xbd7caac1	-0.06168628
140	0xbe728827	-0.2368475
141	0xbe971d65	-0.29514614
142	0xbe4ebc94	-0.20189124
143	0xbe63a34d	-0.22230263
144	0xbdac6eb1	-0.0841955
145	0xbe8fa289	-0.28053692
146	0xbe662509	-0.22475065
147	0xbe0c2eb9	-0.13689698
148	0xbdf1a12b	-0.117983185
149	0xbd958b8c	-0.07302007
150	0x3e86a3c7	0.26296827
151	0x3cf2bc2c	0.029630743
152	0xbdfd85be	-0.12379025
153	0x3e342df1	0.1759565
154	0xbe574fc7	-0.21026526
155	0x3d277434	0.040882304
156	0x3e6ec9e7	0.23319207
157	0x3c970f34	0.018439867
158	0xbde4d48c	-0.111733526
159	0xbe6ca800	-0.23110962
160	0xbb4129e6	-0.0029474436
161	0x3e17a817	0.14810215
162	0xbdd0ee77	-0.102017336
163	0xbeb8ec38	-0.3611772
164	0xbe1a6fbe	-0.15081689
165	0x3de0cf52	0.10977043
166	0xbe2d5948	-0.1692859
167	0xbea1054c	-0.31449354
168	0xbe7b482f	-0.24539255
169	0x3de3cabd	0.11122654
170	0xbd1e3da5	-0.038633008
171	0xbe31687e	-0.17325017
172	0xbe8f3db2	-0.27976757
173	0x3d0afecc	0.0339344
174	0x3e832998	0.2561767
175	0xba8db84d	-0.0010812372
176	0x3e52dbac	0.2059161
177	0x3e38ec58	0.18058908
178	0x3e45dea5	0.19323213
179	0x3e4c5c3f	0.19957064
180	0x3d023de8	0.03179732
181	0x3d291208	0.04127696
182	0x3e222e4e	0.15837976
183	0x3dbd82cf	0.092534654
184	0x3dca27ae	0.098708495
185	0xbe30be20	-0.17260027
186	0x3d48b0c1	0.04899669
187	0x3e1a50bb	0.15069859
188	0x3cb920e2	0.022598688
189	0xbb815ec0	-0.0039480627
190	0x3dc6e229	0.097111054
191	0x3e726f56	0.23675284
192	0x3d8889d8	0.066669166
193	0xbd5d15a0	-0.0539757
194	0x3da4f9db	0.08055469
195	0x3e1feae3	0.15616946
196	0x3dcff0dd	0.10153363
197	0x3e2267ec	0.15859956
198	0x3e5986b5	0.21242793
199	0x3e5587f9	0.2085265
200	0xbe834f0d	-0.25646248
201	0x3dafd2a8	0.08585101
202	0xbdea690b	-0.114458166
203	0xbddb03bc	-0.10694072
204	0x3e96ee12	0.29478508
205	0xbe8582f2	-0.26076466
206	0x3e184414	0.1486972
207	0x3e80295f	0.25031564
208	0x3e922d31	0.28550103
209	0x3e70e17f	0.2352352
210	0xbe015552	-0.12630203
211	0xbd7387ed	-0.0594558
212	0x3d13d97a	0.036096074
213	0x3d926f86	0.07150178
214	0x3dc51c0b	0.096244894
215	0x3e0a1f00	0.13488388
216	0xbb897478	-0.0041947924
217	0x3e32c2eb	0.17457168
218	0xbdad80ec	-0.084718555
219	0x3d18d0c1	0.03730846
220	0x3e7c4849	0.2463695
221	0x3ca92416	0.02064709
222	0x3e6c77a9	0.23092522
223	0xbe521aec	-0.20518082
224	0xbe18db2e	-0.1492736
225	0xbde9bc83	-0.11412909
226	0x3e443451	0.19160582
227	0xbdedbd00	-0.116083145
228	0x3e7e17b7	0.24813734
229	0x3e5c23d7	0.21498047
230	0x3e43cb54	0.19120532
231	0xbdd07d56	-0.10180156
232	0x3dbf539c	0.09342119
233	0x3c8f77f2	0.01751325
234	0x3db70586	0.089366004
235	0x3e3462c0	0.17615795
236	0xbdd21cff	-0.10259437
237	0x3e1171fc	0.14203638
238	0x3d8013ee	0.06253801
239	0xbdaa7b56	-0.08324306
240	0x3e37105e	0.17877337
241	0xbde4c8a6	-0.11171083
242	0x3e73bfee	0.23803684
243	0x3dec0c7b	0.11525818
244	0x3ddec8f0	0.108781695
245	0x3e11c804	0.14236456
246	0xbc52c0cf	-0.012863352
247	0x3e094e2c	0.13408726
248	0x3d2885e4	0.041143313
249	0xbe50d713	-0.20394544
250	0xbc848fdb	-0.016181877
251	0x3dae2eaa	0.08504994
252	0xbbb20479	-0.005432662
253	0x3c82b717	0.015956445
254	0x3dc28c02	0.094993606
255	0x3e4f30b8	0.20233428

conv1.0.bias f4 [16]
0	0x3c9c758f	0.019099025
1	0x3dba88cf	0.091081254
2	0xbd80ce43	-0.06289341
3	0xbe0eac19	-0.13932838
4	0x3cc31054	0.023811497
5	0x3d8dbb72	0.06920518
6	0x3e38c278	0.18042934
7	0x3caba6c5	0.020953545
8	0x39f355a3	0.00046412376
9	0x3d42a5a1	0.047521237
10	0x3db1e399	0.08685989
11	0x3930e6ca	0.00016870644
12	0x3e3572cf	0.17719577
13	0x3c4d9281	0.012547136
14	0xbdd5295f	-0.104082815
15	0xbdcea0c3	-0.100892566

conv2.0.weight f4 [32, 16, 5, 5]
0	0x3cc93743	0.024562484
1	0x3c736ab5	0.014856984
2	0xbdf823e8	-0.121162236
3	0xbdef18ad	-0.116746284
4	0xbd5b752e	-0.053578548
5	0xba713561	-0.00092013745
6	0xbd2699dd	-0.04067408
7	0xbe028ebf	-0.12749766
8	0xbdf966ff	-0.12177848
9	0xbd5a019e	-0.0532242
10	0xbc0ba2da	-0.008522714
11	0xbd6d7b63	-0.057979
12	0xbdfce3d7	-0.123481445
13	0xbd8a05ca	-0.067393854
14	0xbd6508bb	-0.05591653
15	0xbdb9fa9b	-0.09081002
16	0xbcfbab90	-0.030721456
17	0xbd22534b	-0.039630216
18	0xbd8368c1	-0.064164646
19	0xbd8423db	-0.064521514
20	0x3c889f33	0.016677475
21	0x3cec3a41	0.028836371
22	0xbc796ef5	-0.015224208
23	0xbd5a9159	-0.05336127
24	0x3c64dbdb	0.013968433
25	0xbd3fa4f2	-0.046788163
26	0xbc065847	-0.008199758
27	0xbd806229	-0.062687226
28	0xbd031343	-0.03200079
29	0xbd0fb4e1	-0.03508461
30	0xbd6da114	-0.058014944
31	0x3ce03936	0.02737103
32	0xbdc946f8	-0.09827989
33	0xbba8e1e8	-0.0051538832
34	0x3c57220b	0.013130675
35	0xbcfb6118	-0.030685946
36	0xbddfd15e	-0.109286055
37	0xbe10fabd	-0.14158149
38	0xbdb6149f	-0.08890652
39	0xbb7f178a	-0.0038923942
40	0xbd86e29f	-0.06586193
41	0xbe3c5440	-0.18391514
42	0xbda5145c	-0.08060524
43	0xbd35969f	-0.044333097
44	0xbc9571b9	-0.018242704
45	0xbd3b1c4f	-0.045681294
46	0xbd77dd57	-0.06051382
47	0xbc3038be	-0.010755716
48	0x3d0eed60	0.034894347
49	0xbcb6c9c5	-0.022313008
50	0x3d62e409	0.055393253
51	0x3dafced3	0.085843705
52	0xbccdd3b1	-0.025125356
53	0xbc215db9	-0.009849005
54	0xbbcfec63	-0.006345318
55	0x3d81ae39	0.063320585
56	0x3d29ea9d	0.04148351
57	0x3d96b7d6	0.07359283
58	0xbd21ccbd	-0.039501894
59	0xbcc7e9cf	-0.02440348
60	0x3d65468d	0.055975486
61	0x3d226652	0.03964836
62	0x3d552fca	0.05204753
63	0xbce82bec	-0.028341256
64	0x3c6a71fd	0.0143094035
65	0x3dab844a	0.083748415
66	0x3dda1e39	0.10650296
67	0xbd2b43e2	-0.041812785
68	0xbd03d30a	-0.032183684
69	0x3d4566dc	0.048193797
70	0x3d4c1108	0.04982093
71	0x3dd8e1aa	0.10589917
72	0x3c953a99	0.018216418
73	0x3b330c1a	0.0027320446
74	0x3d8044a1	0.0626309
75	0x3b7f2e83	0.0038937635
76	0x3d637270	0.055529058
77	0x3bd3f83c	0.006468801
78	0xbb67cf17	-0.0035371238
79	0xbda2a05d	-0.07940743
80	0x3d1b06d8	0.037848324
81	0x3d3a4b03	0.045481693
82	0xbda2bc2d	-0.07946048
83	0x3ca7353f	0.020411132
84	0x3cff3876	0.031154852
85	0x3d429633	0.047506522
86	0xbd8ada9f	-0.0677998
87	0x3d203ffc	0.03912352
88	0xbd1c99e7	-0.03823271
89	0x3ca4beb0	0.020110458
90	0xbca225ce	-0.019793417
91	0xbd65af64	-0.05607547
92	0x3d5ce226	0.05392661
93	0xbd2e8d20	-0.042615056
94	0xbd862ffc	-0.06552121
95	0x3bbe9e66	0.0058172224
96	0x3d749ae3	0.059718024
97	0xbca813e5	-0.020517299
98	0xbd1ec39d	-0.03876077
99	0xbd36e723	-0.044654023
100	0x3d66970b	0.05629639
101	0xbc184645	-0.009294097
102	0xbbfe196c	-0.0077544954
103	0x3b8ecf5a	0.0043582143
104	0x3cf23e39	0.029570686
105	0x3d99b59b	0.075053416
106	0x3d6d6159	0.057954166
107	0x3cd9c15c	0.026581459
108	0xbc78a4c5	-0.015176003
109	0xbd75ce5f	-0.060011264
110	0xbbc5c274	-0.0060351435
111	0xbcbfc2f1	-0.023408385
112	0x3d11f17c	0.035630688
113	0xbd6050e9	-0.054764662
114	0xbd56f4e8	-0.052479655
115	0x3c52d232	0.012867497
116	0x3d5d9d66	0.054105185
117	0x3d110472	0.03540463
118	0xb91f1d6b	-0.0001517438
119	0xbcd414de	-0.025888857
120	0x3cabcb8a	0.020971078
121	0x3d011220	0.031511426
122	0x3bc9e6e1	0.006161556
123	0x3ae0a4d2	0.0017138964
124	0xbd47fbe9	-0.048824225
125	0xbd02b7b6	-0.03191348
126	0xbc9887a9	-0.018619375
127	0xbe168d28	-0.14702284
128	0xbd9b595d	-0.07585404
129	0xbcad63ce	-0.021165755
130	0xbd074c10	-0.033031523
131	0xbde6ee82	-0.112759605
132	0xbd70fd47	-0.058835294
133	0xbd065488	-0.03279546
134	0xbca5be21	-0.020232262
135	0xbddea509	-0.10871322
136	0xbe03c927	-0.12869702
137	0xbcaf30ea	-0.021385629
138	0xbcc7e1fb	-0.024399748
139	0xbd87e5b3	-0.066356085
140	0xbe0a0443	-0.13478188
141	0xbdf0592e	-0.1173576
142	0xbc8c47c0	-0.017124057
143	0xbdba7a0c	-0.0910531
144	0xbd2883d5	-0.04114135
145	0xbc89a252	-0.016801033
146	0xbd0a4692	-0.033758707
147	0xbd1a5a5f	-0.03768384
148	0xbce275ed	-0.027644122
149	0xbd8a183d	-0.06742904
150	0x3c587aca	0.013212869
151	0x3ce919e3	0.028454727
152	0x3cd55ba6	0.026044678
153	0xbc062eb0	-0.008189842
154	0x3b0c8eb7	0.002144737
155	0x3dcc55ff	0.0997734
156	0x3d17a446	0.037021898
157	0x3dc3dc30	0.09563482
158	0x3dc8dac5	0.09807352
159	0xbaa55340	-0.0012613311
160	0x3da8d1fd	0.08243177
161	0x3d74778b	0.059684318
162	0x3d9b97aa	0.07597287
163	0x3daf4303	0.08557703
164	0xbc9417c9	-0.018077748
165	0x3bc9441a	0.0061421515
166	0x3bf95465	0.0076089376
167	0x3c963f8a	0.018340845
168	0x3d06e4e7	0.032933142
169	0x3d1839f2	0.037164636
170	0xbc029cde	-0.00797197
171	0xbd0e2fca	-0.034713544
172	0xbd6a45d6	-0.057195507
173	0xbd8296bd	-0.06376407
174	0x3cd3b9ad	0.025845373
175	0x3cfbca21	0.030736031
176	0x3d633775	0.05547281
177	0x3d185256	0.037187897
178	0xbce11698	-0.027476594
179	0xbcb0c4ca	-0.021578211
180	0x3d166d9f	0.036725637
181	0x3b4004e5	0.0029299792
182	0x3d39c238	0.045351237
183	0xbd0604ff	-0.03271961
184	0xbd2ebf5a	-0.042662956
185	0x3cb7c02e	0.022430506
186	0x3c5fa65b	0.013650502
187	0xbb8ad805	-0.0042371773
188	0xbda4da77	-0.08049481
189	0xbd9c0879	-0.076188035
190	0x3d6105f8	0.054937333
191	0x3d946c23	0.07247188
192	0xba06ecd7	-0.0005146986
193	0xbd696103	-0.056977283
194	0xbd3d3e4e	-0.046201997
195	0xbc629bab	-0.013831059
196	0x3d071b30	0.032984912
197	0xbbae8ddc	-0.0053269695
198	0xbcea1d72	-0.028578494
199	0x3c888364	0.016664214
200	0x3d4c1962	0.049828894
201	0x3cb2e5a0	0.02183801
202	0x3daab173	0.08334627
203	0x3cc317f2	0.023815129
204	0x3c97aebe	0.01851594
205	0xbd92b0c2	-0.0716262
206	0x3d350456	0.04419359
207	0x3db2eb6d	0.0873631
208	0xbb94035d	-0.0045170025
209	0xbd5d9da1	-0.054105405
210	0x3d1cf770	0.038321912
211	0x3daeec2b	0.08541139
212	0xbb980776	-0.0046395613
213	0xbbdcde66	-0.006740379
214	0xbd26c3af	-0.040713962
215	0x3dc30106	0.095216796
216	0x3d80bc67	0.06285935
217	0xbd1ac0c0	-0.037781477
218	0xbd94750d	-0.07248888
219	0xbcdd2dea	-0.026999433
220	0x3cc07eb4	0.023497917
221	0xbbc2cb43	-0.005944641
222	0xbc1e7617	-0.0096717095
223	0xbd5bc988	-0.053658992
224	0xbc7e8972	-0.015535699
225	0xbcd42aa8	-0.025899246
226	0x3ceacbd1	0.02866164
227	0x3d5b85f5	0.05359455
228	0x3d482b16	0.048869215
229	0x3d114ad3	0.03547175
230	0xbda9d34e	-0.08292256
231	0x3d538f3e	0.05165028
232	0x3cfb4ed1	0.030677231
233	0x3d2d268a	0.04227308
234	0xbd8f51fb	-0.069980584
235	0x3c981aa3	0.018567389
236	0x3bb2b8b5	0.0054541477
237	0x3c9de5da	0.01927464
238	0x3d2f6d63	0.04282893
239	0x3cb2f3b4	0.021844722
240	0x3d1228ae	0.035683326
241	0x3d7a9bd7	0.061183777
242	0x3d43bd62	0.04778803
243	0xbd3d4a55	-0.046213467
244	0xbca2c924	-0.019871302
245	0x3cfef3da	0.031122137
246	0x3d6e1fe3	0.05813588
247	0xbc3ecdf2	-0.011645781
248	0x3cb14123	0.021637505
249	0xbce07b27	-0.027402474
250	0x3c8f5b50	0.017499596
251	0xbcd506e2	-0.026004259
252	0x3cc4a5f3	0.024004912
253	0x3b87fabb	0.0041497624
254	0x3d1ff8cc	0.03905563
255	0xbd5b5e79	-0.053556893

conv2.0.bias f4 [32]
0	0x3a253710	0.00063024554
1	0xbcc3218a	-0.023819704
2	0xbc82b69b	-0.015956214
3	0xbc69e481	-0.014275671
4	0xbd4926e5	-0.04910936
5	0xbce4c1dc	-0.02792447
6	0x3c841dd9	0.016127514
7	0xbca54a0b	-0.020176908
8	0x3be40be2	0.0069594244
9	0x3d0160ae	0.03158634
10	0xbd7aadec	-0.06120102
11	0x3d10a69e	0.03531515
12	0x3bde9190	0.0067922547
13	0x3c641186	0.013920194
14	0xbd9c46cc	-0.07630691
15	0xbc92d821	-0.017925324
16	0xbc19b6e0	-0.00938198
17	0x3cc95c83	0.024580246
18	0xbc58d695	-0.013234754
19	0xbd231c5d	-0.03982197
20	0x3d31288b	0.043251555
21	0x3cb8ea91	0.022572787
22	0xbca28c78	-0.019842371
23	0xbc11b8cc	-0.008894157
24	0xbce965ad	-0.028490866
25	0xbc24d880	-0.010061383
26	0xbc4bde5f	-0.012443154
27	0xbc89e200	-0.016831398
28	0x3c1bb978	0.009504668
29	0xbccb5237	-0.024819477
30	0x3ce5e434	0.028062917
31	0x3cba4fdd	0.02274316

out.weight f4 [10, 1568]
0	0x3bd9bb8e	0.0066446727
1	0x3c27a0cd	0.010231209
2	0xbd6eba6c	-0.058283255
3	0xbc4b71bd	-0.012417254
4	0xbc006db8	-0.007838659
5	0x3c13efe7	0.009029365
6	0x3c58346a	0.01319609
7	0x3c02be24	0.007979903
8	0xbd08e64a	-0.033422746
9	0xbcfef663	-0.031123346
10	0xbc8df5a4	-0.017329045
11	0xbb39e13b	-0.0028363008
12	0x3b893ba9	0.0041880202
13	0x3b94fd62	0.004546807
14	0x3cbde6ba	0.023181308
15	0xbd0ee9c8	-0.03489092
16	0x3bb1f528	0.005430836
17	0xbb342e53	-0.0027493432
18	0xbd517f08	-0.051146537
19	0x3cd363d6	0.025804441
20	0x3c4d860f	0.012544169
21	0xbc3478ad	-0.0110150995
22	0x3a98bc2b	0.0011652758
23	0x3d47ee09	0.048810992
24	0x3d2d3655	0.042288143
25	0xbd2078e0	-0.039177775
26	0xbc3a43df	-0.011368721
27	0x3cc69f2b	0.02424582
28	0x3c1c9665	0.009557341
29	0x3cba1ec2	0.022719745
30	0x3d19d7e6	0.037559412
31	0xbac541bb	-0.0015049496
32	0xbc1c18ec	-0.009527426
33	0x3be093b8	0.006853547
34	0x3d23c2c1	0.039980654
35	0xba122e35	-0.00055763434
36	0xbcdb4cb8	-0.02676998
37	0x3ca8743f	0.020563243
38	0xbb38d229	-0.0028201437
39	0xbcebef85	-0.028800735
40	0xbd0e85ce	-0.034795575
41	0xbbbe40ec	-0.005806079
42	0x3ca6d40b	0.020364782
43	0xbd259d9c	-0.04043351
44	0xbcc9cbab	-0.02463325
45	0xbcf45bb9	-0.029828893
46	0xbcd45b6d	-0.025922501
47	0xbd1706d4	-0.036871746
48	0xbcb2d9d7	-0.02183239
49	0xbcc6a293	-0.024247443
50	0xbc2cbaa0	-0.010542542
51	0xbca9a4d2	-0.020708475
52	0x3bc1e048	0.005916629
53	0xba2c0c9d	-0.0006563159
54	0xbb149758	-0.0022673216
55	0x3c5a29ae	0.013315601
56	0xbc0faf42	-0.008769812
57	0x3bcbdb20	0.00622119
58	0xbb941c81	-0.0045199995
59	0xbc838aed	-0.016057456
60	0x3ca5e88a	0.020252485
61	0x3ca314c7	0.019907368
62	0x3cdc8b70	0.026921958
63	0xbcd7ab3d	-0.02632677
64	0xbcd42c50	-0.025900036
65	0xbc4701a2	-0.012146385
66	0xba66fb6d	-0.0008811269
67	0xbb1be8b8	-0.0023789834
68	0x3d43191c	0.047631368
69	0x3d469366	0.048480414
70	0xbcca8b26	-0.024724554
71	0x3d093c6b	0.033504885
72	0x3d112b53	0.035441708
73	0x3d1ecaf7	0.03876778
74	0xba44ee99	-0.00075123605
75	0x3d5b613a	0.05355952
76	0x3ca8e225	0.020615647
77	0x3ce4aa0d	0.027913118
78	0x3cbe9780	0.0232656
79	0x3cd7b299	0.02633028
80	0x3d8df163	0.069308065
81	0xbca09b74	-0.019605376
82	0x3c1a8255	0.009430488
83	0x3d0f447c	0.03497742
84	0x3c620689	0.013795503
85	0x3cc8e47c	0.024523012
86	0x3c8c8a87	0.017155899
87	0x3a895ae8	0.0010479363
88	0xbc117854	-0.008878786
89	0xbd4ce1e9	-0.050020132
90	0x3c43db93	0.011954206
91	0x3b9b9eab	0.0047491393
92	0x3c021d40	0.007941544
93	0xbc68e8c4	-0.014215652
94	0xbd6c4562	-0.057683356
95	0xbcb2af2b	-0.021812042
96	0xbd60e95d	-0.054910053
97	0xbd007f93	-0.031371664
98	0xbd0158ac	-0.031578705
99	0xbc3ac423	-0.011399302
100	0x3c4cabe0	0.01249215
101	0xbba28960	-0.004960224
102	0xbcdfa7b9	-0.027301656
103	0x3a6b4251	0.00089744205
104	0xbcfbbf8c	-0.030730985
105	0x3c172e1e	0.009227304
106	0xbcad80cf	-0.021179585
107	0xbc775f5e	-0.015098421
108	0x3bd31273	0.0064414083
109	0x3bfff612	0.0078113163
110	0xbc058987	-0.008150465
111	0xbc570baf	-0.013125344
112	0xb8805464	-6.1192346e-05
113	0x3a814040	0.0009861067
114	0xbd7702f9	-0.06030557
115	0xbc71043c	-0.014710482
116	0xbc6a1b5f	-0.014288752
117	0xbc853f7a	-0.01626562
118	0x3a13a5a1	0.00056322856
119	0xbbbba2bd	-0.005726187
120	0xbcd3ea94	-0.025868692
121	0xbd8b5c6e	-0.06804739
122	0xbd76feef	-0.060301717
123	0xbd669476	-0.056293927
124	0xbd4104e9	-0.047123823
125	0x3d165c4c	0.036709115
126	0xbd8d09a8	-0.068866074
127	0xbc9b5f75	-0.018966416
128	0x3c9bb198	0.019005582
129	0x3c33138e	0.010929955
130	0xbcc527bb	-0.024066797
131	0x3babb7c7	0.005240414
132	0x3cf5af28	0.029990748
133	0xbd9f73de	-0.07785772
134	0xbc470910	-0.012148157
135	0x3d7fe793	0.062476706
136	0x3c7c98b9	0.015417271
137	0x3ba3c23f	0.004997521
138	0xbcb6bb11	-0.022305997
139	0xbc9c51d0	-0.01908198
140	0x3a374c61	0.00069922773
141	0xbd36a4ed	-0.04459088
142	0xbd1e616a	-0.03866712
143	0xbd4d32d8	-0.050097317
144	0xbca3ffe0	-0.020019472
145	0x3b6ef101	0.0036459567
146	0x3bcfbebd	0.0063398764
147	0x3c66306e	0.0140496325
148	0xbc1fc660	-0.009751886
149	0xbc95b99a	-0.018276978
150	0x3c7c9ed6	0.015418729
151	0x3bd124d8	0.006382566
152	0xbca631a0	-0.020287335
153	0x3a8b06b0	0.0010606851
154	0x3b54e1a9	0.0032483137
155	0xbc35e8eb	-0.011102895
156	0xbca74589	-0.0204189
157	0xbc9b9b7f	-0.018995045
158	0xbb1412ae	-0.0022594142
159	0xbbc762e0	-0.006084785
160	0xbbcc88e8	-0.0062419064
161	0xbccfb90d	-0.025356794
162	0xbbb6c35d	-0.0055774883
163	0x3d34a9d4	0.044107273
164	0x3d00e271	0.03146595
165	0xbd3cf9fc	-0.04613684
166	0xbc56d68a	-0.013112674
167	0xbc1bcd9c	-0.00950947
168	0xbdc111fd	-0.09427259
169	0xbbf3115a	-0.00741784
170	0x3d660b99	0.056163404
171	0x3d1d67c9	0.038429055
172	0x3ab69211	0.0013929029
173	0x3b13c920	0.00225503
174	0x3cf15ea0	0.029464066
175	0xbd562189	-0.052278075
176	0xbca7d3c6	-0.020486724
177	0x3a3f75c3	0.00073036196
178	0x3b571cec	0.0032823635
179	0x3c41fd71	0.01184021
180	0x3c9acd11	0.018896611
181	0xbb1e36fd	-0.0024141662
182	0x3cec0581	0.028811218
183	0xbc1c7441	-0.0095492015
184	0xbcba0841	-0.022709014
185	0xbc10707c	-0.008815881
186	0x39d0d148	0.00039828778
187	0x3ca30499	0.019899653
188	0xbd5ee61d	-0.054418672
189	0xbc93238f	-0.017961292
190	0x3cdcf99d	0.026974494
191	0xbc3e8c87	-0.011630184
192	0xbd4a1e2e	-0.049345188
193	0xbd0a341b	-0.033741098
194	0xbd9a1d18	-0.075250804
195	0xbc853d71	-0.01626465
196	0xbcdfc62e	-0.02731618
197	0xbc7e3300	-0.015515089
198	0x3cb3e6e6	0.021960687
199	0x3a9c27a0	0.0011913665
200	0x3c50034d	0.0126960995
201	0xbd37199e	-0.044702165
202	0xbcbbea73	-0.022938943
203	0xbb8fc003	-0.0043869033
204	0xba745d94	-0.00093218056
205	0x3c328b5f	0.0108974865
206	0xbc24fbaf	-0.010069772
207	0xbb64b669	-0.0034898764
208	0xbd9556e0	-0.07291961
209	0xbdc16bca	-0.09444387
210	0x3c93ce10	0.018042594
211	0x3cc3aea2	0.023886982
212	0xbc91b668	-0.017787173
213	0xbb6196b2	-0.0034422097
214	0x3ca27956	0.019833248
215	0xbc4676b2	-0.01211326
216	0xbddfc00c	-0.10925302
217	0xbc738b3f	-0.014864742
218	0xbc59945c	-0.013280001
219	0xbcb48294	-0.02203492
220	0xbc082bb0	-0.008311197
221	0x3c9c5fc4	0.019088633
222	0xbc22aa3f	-0.009928285
223	0xbcde6c7a	-0.027151335
224	0x3c9abd5f	0.018889127
225	0xbc4272d8	-0.011868201
226	0xbd5bbefd	-0.053648937
227	0xbd4ce694	-0.050024584
228	0x3cda8ec1	0.026679398
229	0xbca2d646	-0.019877564
230	0xbc002cd1	-0.007823185
231	0x3c1f6083	0.0097276
232	0x3c89dc4b	0.016828677
233	0xbd07f145	-0.033189077
234	0xbc0c89f9	-0.008577817
235	0xbc50f548	-0.012753792
236	0xbc4f8b8a	-0.012667546
237	0xbc233072	-0.009960281
238	0x3d0fd1e3	0.035112273
239	0x3c594430	0.013260886
240	0x3c159e76	0.009132018
241	0x3c8054c1	0.015665414
242	0x3b78ec4f	0.0037982648
243	0x3c93f997	0.01806335
244	0xbc59000d	-0.013244641
245	0xbb7def50	-0.0038747378
246	0xbbb3e333	-0.0054897307
247	0xbc804a56	-0.015660446
248	0xbc404b01	-0.011736632
249	0x3c8ce6d3	0.01719991
250	0xbc9084cc	-0.017641447
251	0xbd0dd079	-0.034622643
252	0x3bb8b132	0.0056363577
253	0xbceb524b	-0.028725764
254	0xbc25f0df	-0.010128229
255	0x3ca88d4d	0.02057519

out.bias f4 [10]
0	0x3c37c96a	0.011217454
1	0xbc4e39b8	-0.012587003
2	0x3bdec3a0	0.0067982227
3	0x3c933c54	0.017973103
4	0xbc08e4a2	-0.008355292
5	0x3b8ba152	0.0042611742
6	0xbc90d2f0	-0.017678708
7	0x3ae91ab7	0.0017784451
8	0x3cc7e5cd	0.02440157
9	0x3c5f799b	0.013639833
